main/assets/g1/locomotion.onnx (onnx, 877936 bytes, 8 tensors)

actor.0.weight f4 [512, 99]
000000 a3 03 6a 3e 89 b1 24 be 8a 63 51 be ba 0c dc bd
       0.2285295 -0.1608335 -0.20448127 -0.10744615
000010 93 5b a8 3d 07 c7 95 bd a8 11 87 3c 7d 67 a0 3d
       0.082205914 -0.07313352 0.016487911 0.07832239
000020 e1 ee 6b bd a7 5a a0 be c2 30 45 3e 78 a4 9c 3e
       -0.05760086 -0.31319162 0.19256881 0.3059423
000030 16 f5 d1 3b ec 4c ec be 85 da 2a 3e cb b5 3d be
       0.0064073903 -0.46152437 0.16684921 -0.1852638
000040 db 10 e6 be f9 83 a0 be 9b 26 ad bd d3 1b 0e be
       -0.44934735 -0.31350687 -0.08454629 -0.13877802
000050 5e 3c c2 bd 08 6f f6 bd 81 63 69 bf 34 c8 24 3f
       -0.094841704 -0.12032896 -0.91167456 0.64367986
000060 5c d7 86 bd d6 37 3a 3d c8 62 05 3f 94 62 ae 3c
       -0.06584045 0.045463406 0.52103853 0.02128724
000070 2d 6b 20 3e 91 ce 8f bd 1e 87 48 be 08 65 d6 bd
       0.15665884 -0.07021821 -0.19582793 -0.10468489
000080 09 01 26 3e 52 00 14 3f 1e 46 07 3d 07 9d 29 3d
       0.16211332 0.5781299 0.033025853 0.04140952
000090 97 72 b0 bb 0c d9 a6 3c ea dc 55 bb ef 95 88 3c
       -0.005384754 0.020367168 -0.0032632896 0.016673056
0000a0 6a 9d 98 bb 72 da 7d bb 27 05 73 3a 05 f3 27 bb
       -0.004657437 -0.003873494 0.0009270482 -0.0025627029
0000b0 2b cc b4 3c 10 5b 5f 3a 49 95 2e bc 71 9d a1 3a
       0.022070011 0.0008520344 -0.01065571 0.0012330246
0000c0 3e e6 ba 3c 44 a7 3f 3c a5 dd 32 bb 1f db dd 3a
       0.022814866 0.011697594 -0.0027292755 0.0016926265
0000d0 22 9b b1 3c a7 74 c6 bc 2c bb 1d bc ec 0c b6 bb
       0.021680418 -0.024225546 -0.009627145 -0.0055557396
0000e0 d2 e9 81 bc 10 d7 bb bc 7a 83 e6 bb 05 13 94 3b
       -0.015858565 -0.022929698 -0.007034716 0.004518869
0000f0 21 0f e6 3c e2 70 6c 3c 14 7d a0 3c 42 9f ea 3b
       0.028083386 0.01443121 0.019590892 0.0071600983
000100 26 e0 55 3b 6a aa 43 bd b6 0d a6 3c f3 bf 6e 3e
       0.0032634824 -0.04776994 0.02027021 0.2331541
000110 87 2b 1e 3d 20 ec 06 be f2 e9 06 bd 2c 99 48 bc
       0.03861573 -0.13176012 -0.03293795 -0.01224355
000120 53 21 50 bd 7e c6 8b 3e 0f 03 b8 bd 4d db 47 bc
       -0.05081303 0.27299875 -0.089849584 -0.0121982815
000130 44 6b 13 3d f7 d9 2d bc f1 21 d9 3b ad a1 e3 bd
       0.03599097 -0.010611049 0.0066263606 -0.111148216
000140 78 33 14 bd d3 98 1f 3d 11 1b ff bd 04 25 e1 3d
       -0.036181897 0.038964104 -0.124563344 0.10993388
000150 0c 80 64 bd d0 d7 6a 3c 8c 17 cd bd 5b df 47 3d
       -0.055786178 0.01433368 -0.10014257 0.048796993
000160 79 98 b7 bd 32 14 52 be 86 46 58 bd 2e d3 d1 bd
       -0.08964629 -0.20515516 -0.05280163 -0.102453575
000170 d3 f9 96 bd 31 b4 22 bd 08 10 43 bc f6 09 7c 3d
       -0.07371869 -0.039722625 -0.011905678 0.061532937
000180 b0 d4 99 be 82 f0 09 be 74 c6 77 bd 50 c6 d4 be
       -0.3004508 -0.13470653 -0.060491994 -0.4155755
000190 d4 34 48 3e d6 98 2d 3e 55 2b c5 3c 6b 2a eb bd
       0.19551402 0.16952834 0.024068514 -0.114827
0001a0 4f 4f 5a be f1 cd d0 be 15 95 d0 3e cf 9e 9d bc
       -0.21319316 -0.4078212 0.4073874 -0.019240765
0001b0 59 01 13 3f b7 cc 38 bf bc 1b 99 be 12 29 3a 3f
       0.5742393 -0.7218737 -0.29903972 0.7271892
0001c0 36 b0 1f bc 01 03 f5 3e c7 06 8a bd cf 66 0c 3e
       -0.009746602 0.47853854 -0.06739574 0.13711093
0001d0 96 c2 5c 3e 0d 96 a6 be 3b ea 88 3b 0a 89 ec bd
       0.21558604 -0.32536355 0.004178313 -0.115495756
0001e0 45 52 e6 be 4c b0 9f bd a8 cc 97 be 45 dd c1 be
       -0.44984642 -0.07797298 -0.29648328 -0.37864128
0001f0 04 02 6e 3d b2 15 a0 bd fc d0 ed 3d a9 9c e4 3d
       0.05810739 -0.07816638 0.11612126 0.11162693
000200 9b ac b8 3c 81 6b 9c bd f7 09 30 3e 50 00 02 be
       0.022543242 -0.07637692 0.17191301 -0.12695432
000210 aa 71 b1 3e 0a 6a 37 3d 7e bf ca bd ab c2 e3 bd
       0.3465703 0.04477886 -0.098998055 -0.11121114
000220 76 65 2b be b0 c6 87 3c b4 1f fd 3b 67 3e 83 bb
       -0.16737923 0.016574234 0.0077247266 -0.0040052417
000230 0d ba b9 bc 36 bb 88 bc 6b da bb ba e6 2c 97 bc
       -0.022671724 -0.016690832 -0.0014332061 -0.018454026
000240 e0 56 1d bd 59 14 81 3c 4f 2f d2 bc f5 99 00 3b
       -0.03841293 0.015756773 -0.025657324 0.0019623016
000250 bd 7e 61 3a b6 30 c7 bc d1 97 8c 3a 25 c2 14 3c
       0.00086019543 -0.02431522 0.0010726397 0.009079491
000260 f6 9b 8b 3b a1 6c e3 ba 09 52 1b bc b4 c1 03 3c
       0.0042605354 -0.00173511 -0.009480008 0.008041788
000270 1a d5 4d bc 58 40 8c bc 64 03 9f bc 0b 17 5a 3c
       -0.012563014 -0.017120525 -0.019410796 0.013311158
000280 ae 60 06 3c 1e 52 e3 bb 1e 40 02 3a be f7 5f 3c
       0.008201761 -0.0069372794 0.00049686607 0.013669906
000290 35 1f 93 3b 1f 7e 13 3c bb 65 fc bd 4a 32 85 bd
       0.004489804 0.009002238 -0.12324091 -0.065037325
0002a0 85 1a db bc dc 06 12 3d e1 e7 d5 bc 75 55 80 bd
       -0.026746044 0.035651073 -0.026111545 -0.062663
0002b0 94 6a 41 3b da 57 a4 bd 5e dc 9f be fb 63 2b bc
       0.0029512988 -0.08024569 -0.31222814 -0.010460849
0002c0 3c 13 89 bd 52 91 d6 bc 1c 9c 4f 3d fc ad 5d 3e
       -0.06693122 -0.026192341 0.050685987 0.21648401
0002d0 3e bd 2e be 5e 6a 13 3d eb 31 ec 3c f7 b8 86 3d
       -0.17064378 0.03599011 0.028832396 0.06578248
0002e0 43 78 07 bd 21 d7 10 3c 40 21 55 3a ab b5 5b bc
       -0.033073675 0.008840353 0.000813026 -0.013410012
0002f0 d4 19 28 bd ae 21 c0 3d 1a c0 76 3d 66 4f ae bd
       -0.041040257 0.09381424 0.060241796 -0.08511238
000300 a6 36 af bd 64 5e 91 bc aa ad 8c 3d a1 3a 97 3e
       -0.08555345 -0.017745204 0.06869061 0.29536918
000310 65 d4 84 3d cc 9b cc 3d 33 94 17 be fb a6 11 be
       0.064858235 0.099906534 -0.14802627 -0.14223854
000320 a1 b6 73 be 4c 30 24 3e 9f 13 c5 bd dd 95 98 3d
       -0.23800136 0.16034049 -0.09622883 0.07450459
000330 ac 44 f5 be 43 e3 a5 3e f0 27 07 3e 34 31 01 3f
       -0.47903955 0.3239995 0.13198829 0.50465703
000340 20 ac 2e bc 8c 42 ff bc 33 b5 af 3d 8a 93 18 bd
       -0.010661155 -0.031159662 0.08579483 -0.03725008
000350 00 06 2e 3f f9 9c cd be 34 21 d2 be e2 03 b2 3e
       0.67977905 -0.40158823 -0.41040957 0.34768587
000360 3f 8a 77 be 01 c1 2f be 21 97 e5 3d f3 ef 3e be
       -0.2417383 -0.17163469 0.11210466 -0.18646221
000370 1f 1c 3a bf 6b b9 8b bc e3 98 52 bd 50 44 70 be
       -0.7269916 -0.017056188 -0.051415335 -0.23463559
000380 e2 4e 5c bd 2b f5 1a 3e 60 6f b2 bd 90 be 15 bd
       -0.053786166 0.15132587 -0.08712649 -0.036558688
000390 13 0a b7 3d 8c 00 de 3c 90 0a 56 3e e4 8c a9 be
       0.089374684 0.02709987 0.20902467 -0.33115304
0003a0 17 6d b9 bd a7 4d 86 bd 04 9a ae bd 9c a5 64 bd
       -0.0905401 -0.0655778 -0.0852547 -0.055822
0003b0 f9 e3 80 3c 3d 26 f0 bb 27 ab d9 39 30 1f fa bb
       0.015733706 -0.007328777 0.00041516984 -0.0076331124
0003c0 e5 7d 2b bd c8 96 3c bd 89 22 84 3b 16 23 13 ba
       -0.04186811 -0.046042234 0.004032437 -0.0005612833
0003d0 37 50 c8 3c bd 1a 2f bd 4b 41 f7 bc ad 8b b2 3c
       0.024452312 -0.04275011 -0.030182501 0.021795118
0003e0 e0 e3 2a 3b 80 02 ae 3c 9d 32 06 bd 0a 8d 1a bc
       0.0026075765 0.021241426 -0.032763112 -0.00943304
0003f0 9f 2f 22 3b a2 24 ca 3a 65 f4 2d 3c 95 95 77 3c
       0.0024747623 0.0015422294 0.01061735 0.015111347

actor.0.bias f4 [512]
000000 d4 1f 4d b8 30 8d cf 3c 31 98 a8 bc 08 4a 93 3d
       -4.890545e-05 0.025335878 -0.020580383 0.07191855
000010 47 d5 eb 3d 73 01 18 be 32 b1 4c bc 69 eb 3b bd
       0.11515289 -0.14844303 -0.0124934185 -0.0458788
000020 5c 8c c6 3d 58 bd 06 bd 11 6a 9c bd 1c df 30 3d
       0.0969474 -0.032895416 -0.07637418 0.043181524
000030 ae df 11 be df 65 14 bc 82 01 b3 bd 3b 7c 27 bd
       -0.14245483 -0.009057491 -0.08740522 -0.04088996
000040 8f da 1f 3b 02 d0 19 bd 36 7c 98 3b 97 02 9e 3a
       0.0024391746 -0.037551887 0.004653479 0.0012055215
000050 13 5f 9f bc d9 45 f3 3c 27 59 a9 3d 1e 03 88 3d
       -0.019454515 0.029696392 0.082689576 0.066412196
000060 f4 dc fd bc 2f ae d0 bd 64 bb b7 bd 93 10 0f be
       -0.030989148 -0.10189473 -0.08971289 -0.13971166
000070 42 d7 22 3d df 52 64 be f9 43 2e 3d 7d db bc bd
       0.039756067 -0.22297238 0.042545293 -0.092215516
000080 13 0e c2 3c b4 af f5 bd 83 68 91 3d 0d 00 b5 bd
       0.023688352 -0.11996403 0.07100012 -0.088379
000090 8b e7 72 bb ee 22 93 bc 53 6e d9 bd 06 f2 b2 bc
       -0.003706428 -0.017960992 -0.10616746 -0.021843921
0000a0 a5 3b 08 be 29 bd 4d bc 9d d5 e3 bd 8c a5 dd bd
       -0.13304003 -0.012557306 -0.11124728 -0.10822591
0000b0 a0 56 0b be 23 e1 23 be 93 67 98 bd e6 42 d2 3c
       -0.13607264 -0.16003852 -0.0744163 0.025666665
0000c0 61 7e a8 3d c3 39 b6 3d 0d 98 3f 3d 87 93 91 3d
       0.0822723 0.08897736 0.046775866 0.07108217
0000d0 cf c7 ac bd 0e bf 0d bc 29 d4 87 bd 39 2f ee bd
       -0.08436548 -0.008651508 -0.06632263 -0.11630101
0000e0 ed c2 a6 bc 29 fa 0b bd 52 df b1 bd c1 70 bc bc
       -0.02035662 -0.03417412 -0.08685173 -0.023002984
0000f0 fa 94 95 bc 6b 09 b6 bd b2 54 cc 3d 71 ab c0 bd
       -0.018259514 -0.08888515 0.09977092 -0.094077
000100 c2 ce 12 3d 6a ed 2f bd 77 9d 8f 3c c1 92 74 3d
       0.03584171 -0.042951025 0.01753114 0.059710268
000110 6c ae 99 bd 13 54 bc 3c cf e5 f9 bd 2f 36 b9 3c
       -0.075039715 0.022989308 -0.12202036 0.022608845
000120 cd fe ac 3b c5 3f 8c 3c 40 85 c8 3c a9 b5 a0 3d
       0.005279398 0.017120251 0.024477601 0.07847149
000130 5c 12 bf bd e3 34 98 bd 50 f7 20 be 7a 0c d0 bd
       -0.09329674 -0.07431962 -0.15719342 -0.1015863
000140 43 fe ef bd 1a 49 bc bc dd 5e 8c bc 2e e3 b9 bd
       -0.117184184 -0.022984076 -0.017135078 -0.09076534
000150 2f 21 b4 3d 8d a7 76 3d 89 a1 93 bd 1f db c2 bd
       0.08795392 0.060218383 -0.07208545 -0.0951445
000160 8a c7 d2 bc 96 a5 2c 3d 1a d5 a3 3c c9 cb 89 bd
       -0.025729913 0.042150103 0.019999076 -0.06728322
000170 b1 d1 b0 bc d0 bf ea 3c 77 44 05 be b3 2e 2e bd
       -0.021584364 0.028655916 -0.13014399 -0.042525005
000180 91 8e 04 be 48 94 4e 3b a3 61 9c bd 24 c9 82 bd
       -0.1294501 0.0031521488 -0.0763581 -0.06386021
000190 7c 00 07 3e cb db 1e 3d 7c 47 13 bd 74 75 46 3d
       0.13183779 0.03878383 -0.035956845 0.048451856
0001a0 ef 4f 9a 3c ec 58 f5 bd 6e 82 67 bd 23 1c 3f 3c
       0.018836943 -0.11979851 -0.05652087 0.011664423
0001b0 92 8f b1 3d be a6 d0 3c 96 61 4e 3c 38 fa 84 bd
       0.08669962 0.025470134 0.0125965085 -0.06493038
0001c0 2d e6 1b be ef 14 94 3c 81 07 0c 3d 55 c9 08 be
       -0.15224524 0.018076388 0.034186844 -0.13358052
0001d0 34 80 bd bd 89 24 83 bd 60 5d bf bd fc 0b 93 bd
       -0.092529684 -0.06403453 -0.09343982 -0.0718002
0001e0 38 96 bf bc 6d 32 d6 bb d3 0f 46 3c 3b e4 7a bd
       -0.02338706 -0.006536773 0.012088734 -0.061252814
0001f0 ad 47 10 3e 41 76 f1 bd 0a 37 57 be d6 c5 2f be
       0.14089842 -0.11790133 -0.2101709 -0.17165312
000200 c8 3a fd bc ce f9 1f 3d 84 86 f5 3d a7 ce eb 3d
       -0.030911818 0.03905659 0.119885474 0.11514025
000210 e7 55 e9 bb 71 cb ed bc f2 19 6f 3d 9e 25 d2 3d
       -0.007120836 -0.029027672 0.058374353 0.10261081
000220 d2 05 d8 bc 5b d1 83 bd d8 ab 9b bc 7e d3 5a 3d
       -0.026369963 -0.06436416 -0.01900284 0.05342435
000230 8c a2 5c 3d a9 9a d3 3b 06 74 cd 3d f4 0a b1 bd
       0.053865954 0.006457646 0.10031895 -0.08644667
000240 35 1b c2 bc 9a 62 16 3e 97 61 14 3d 59 60 dd 3b
       -0.023694614 0.14686051 0.03622588 0.0067558703
000250 4f 31 59 bd 0b e3 2e bc 3e 69 fd bc 72 1b a7 bd
       -0.05302554 -0.010674248 -0.030933972 -0.08159532
000260 e5 0d c3 bd 25 3e 2a bd 20 b5 7d bd c5 ce 82 bd
       -0.095241345 -0.041563172 -0.061940312 -0.063870944
000270 71 8e 97 3d a6 12 ef ba dc db 90 bd a4 08 0b 3d
       0.074002154 -0.0018239811 -0.07073185 0.033943787
000280 0f c9 20 3d 4f cc 82 3c 19 07 9e 3d 4e 94 ef 3b
       0.039254244 0.015966563 0.077161975 0.0073113805
000290 57 2c 2c bd 87 90 a1 3b ed 8c 92 3d 54 fc e0 bd
       -0.042034473 0.004930559 0.07155786 -0.10985628
0002a0 df 6c 84 bc b1 50 c7 bd 01 a6 e2 3c b0 93 a9 bc
       -0.016165195 -0.097321875 0.027667047 -0.020700306
0002b0 d6 49 5d 3d 73 d1 46 3d c7 2e cc bb ba 55 ce bd
       0.054025494 0.04853959 -0.006231162 -0.10074945
0002c0 20 de cb 3c 3f 41 99 bd 74 5d 3f 3c a0 b1 c1 3c
       0.02488619 -0.07483148 0.011679996 0.023644269
0002d0 4b a8 8e 3d 42 2a 21 bd 75 13 74 3b ad 8f ce 3b
       0.06965693 -0.03934694 0.0037243043 0.0063037486
0002e0 bf 31 4c 3d 26 3d 22 3d e2 fc f8 bc bb bd 94 bd
       0.04985213 0.039609097 -0.030394021 -0.07262751
0002f0 80 21 88 bd 41 51 8e bd c0 9b 90 3c 4f 3f 8d bd
       -0.066470146 -0.06949092 0.017652392 -0.06896841
000300 83 f5 49 be 1e 23 11 bd b5 ba 9f 3c 71 64 0c 3c
       -0.19722562 -0.03543388 0.019498209 0.008568869
000310 bf 4a ab bc 97 b5 c9 3d 3e b4 1d bc 27 f0 ba 3d
       -0.020909665 0.09849089 -0.009625493 0.09127837
000320 b8 7f d9 bd f0 6f 66 bd a5 d0 62 bd db 05 8a 3d
       -0.106200635 -0.056259096 -0.05537476 0.06739398
000330 da 94 1e bc 5a 8c cc 3b 75 6c 3c bc 6b 5f 0e be
       -0.009679044 0.006242317 -0.011500468 -0.13903587
000340 c8 5e 4d bd ac 22 54 bd 41 ec ea bc e5 37 60 3d
       -0.05013922 -0.05179088 -0.028677108 0.054740805
000350 94 fb 3c be 11 24 6a 3d e1 1e 0f 3e fe 1e fe bc
       -0.18455344 0.0571633 0.13976623 -0.031020638
000360 7a 25 6c 3d 95 19 60 3d 22 44 af 3c b9 24 09 3c
       0.057652928 0.054711897 0.021394793 0.008370572
000370 e6 85 25 3d 34 8b c0 bd 1f 80 f9 bd 74 f5 a2 3c
       0.0404109 -0.09401551 -0.1218264 0.019892432
000380 47 30 4d bd 53 bb 2f bd 76 49 2e bc f9 a1 0c be
       -0.05009487 -0.042903256 -0.010637632 -0.13733663
000390 24 90 0a be 6d 65 ca bc 4a bb 37 3d f6 45 96 bc
       -0.13531548 -0.024706567 0.044856347 -0.018343907
0003a0 fd f9 06 be 5b 3e 91 3d 38 35 87 bd 08 70 9b bd
       -0.131813 0.070919715 -0.066019475 -0.07589728
0003b0 01 d7 6b bd 5f b8 bd bd 2b 03 8c bc c7 99 4a bd
       -0.05757809 -0.092636816 -0.017091354 -0.04946306
0003c0 76 73 96 bd 1d 84 c4 bd ff d4 b8 bc f6 ae 1a bd
       -0.07346241 -0.09595511 -0.022562502 -0.037764512
0003d0 86 72 a8 bd 7d 83 a4 bd 11 3f e9 bd 5a b8 9e bd
       -0.082249686 -0.08032892 -0.11388982 -0.07750006
0003e0 00 d5 3b be f3 d2 b4 bd c6 57 1e 3d 75 f2 33 bd
       -0.18342972 -0.08829298 0.038657926 -0.043932397
0003f0 a9 6a 0b bd 78 9f 65 bd 03 66 fb bc da a6 96 3d
       -0.034037266 -0.056060284 -0.030688291 0.07356043

actor.2.weight f4 [256, 512]
000000 62 e3 17 3c 71 ba b6 bd b5 dd 86 3b bf d8 11 3d
       0.009270521 -0.089222796 0.004115785 0.035607096
000010 d7 24 07 bd 92 c2 a5 3d 45 6e 1b be c7 8e 07 bc
       -0.032994118 0.08093752 -0.15178783 -0.008273787
000020 9f 9a 66 3c 54 4e 1b 3d 29 29 04 3e 72 53 07 be
       0.0140749505 0.037916496 0.12906326 -0.13215426
000030 c6 fb c1 bb 93 a0 8e 3d 2c ce 94 bd 2d b2 b6 3d
       -0.0059199063 0.06964221 -0.07265887 0.08920703
000040 d4 f0 cd 3c aa 8b 45 bd 68 52 1f 3d c8 bd a8 3c
       0.02513925 -0.048228897 0.038896948 0.020598307
000050 a7 52 ef bc 6a 8b 7d 3d a4 8c c4 3a d9 f0 8d bb
       -0.029214216 0.061900534 0.0014995527 -0.00433169
000060 fd 13 f9 bc cd 6a 9e bb fe e8 b4 3c 90 22 c1 bd
       -0.030405039 -0.004834509 0.022083756 -0.094304204
000070 3e d3 62 bb a2 56 67 bb 24 80 4b 3d 45 94 d9 3d
       -0.0034610773 -0.003529944 0.04968275 0.10623983
000080 d7 18 93 3d 50 60 bb 3d 17 62 1c bc 05 12 85 bd
       0.07182472 0.091492295 -0.009544871 -0.064975776
000090 95 66 5c bd a4 40 35 bd aa 0c f4 3d 90 a0 fe bd
       -0.053808767 -0.0442511 0.11916478 -0.124329686
0000a0 b8 e7 6a bd 30 dd 85 b8 ae cf 0b bb 86 00 8c bd
       -0.05734989 -6.3831336e-05 -0.0021333504 -0.06836037
0000b0 61 21 54 3d e8 19 b9 bd 18 6d 9e 3d 76 23 02 3e
       0.051789645 -0.09038144 0.07735652 0.1270884
0000c0 f8 21 98 bd b9 63 fb 3c 81 91 95 3d 27 be 43 bc
       -0.07428354 0.0306872 0.07303143 -0.011947191
0000d0 97 80 43 3d b6 ff e8 bc d2 50 13 bd 7f 18 c5 bd
       0.047730055 -0.028442245 -0.035965748 -0.09623813
0000e0 a2 50 a8 3d 67 82 cb 3c dd 8f 29 bd 42 24 92 3d
       0.082185045 0.024842454 -0.041396964 0.07135822
0000f0 c4 ed b8 bd 28 78 f2 bd 46 be 4b bd cd da b9 bc
       -0.09029725 -0.11839324 -0.049742006 -0.02268734
000100 35 e5 be bc e9 55 2b bb 12 f6 73 3d c9 4a b5 3b
       -0.023302654 -0.0026143736 0.059560843 0.0055325967
000110 7b 78 46 3d 27 bf 82 bd d1 f9 6d 3d 11 7e ad bc
       0.048454743 -0.06384116 0.05809957 -0.021178277
000120 0e 41 89 bd ef 34 f7 bc 7d 5e 3d bd 75 93 bd bb
       -0.06701861 -0.030176608 -0.04623269 -0.0057854005
000130 02 c0 af 3c d5 ce 68 3d 55 fc 28 bd 69 fa aa bc
       0.021453861 0.056837875 -0.041256268 -0.020871358
000140 98 ba 9f bd 22 53 f4 3d d9 f7 8b bd 1f 26 8e 3d
       -0.07799262 0.11929919 -0.068343826 0.06940865
000150 24 f3 ce bd 60 50 b0 3c ff a1 81 3d d1 d1 f3 3d
       -0.10104969 0.0215227 0.063297264 0.11905254
000160 3c 56 de bd 41 3d 28 3d 68 84 06 3d cb 06 1f 3c
       -0.10856292 0.04107404 0.032841116 0.009706209
000170 19 32 6c bd 17 e0 df 3c 9c cb 8d 3d 3a bd 26 be
       -0.057664964 0.027328534 0.06923601 -0.16283122
000180 44 5e 79 bc 67 ee aa bd 5c 18 31 3d 16 bc 72 3d
       -0.015220229 -0.08346253 0.04323612 0.059261404
000190 19 70 64 bd 61 1b 48 bd 04 63 90 3d 47 ce 0a 3d
       -0.055770967 -0.048854236 0.07050136 0.033888128
0001a0 6d 25 30 3d 28 fa 70 bb 2e 59 94 3c 66 9b 92 3c
       0.043004442 -0.0036770198 0.01810893 0.017896365
0001b0 3d 75 d3 bc 8d a3 00 3d a9 e4 d2 38 be a9 1a 3b
       -0.02581274 0.031405974 0.000100561716 0.002359971
0001c0 9b f5 16 bd 5a ca 04 be 1b de 85 bd e4 5f 9d 3d
       -0.03685532 -0.12967816 -0.06536504 0.07684305
0001d0 98 09 3d bd f5 1c 0f bd c8 66 90 3c 99 a2 15 bd
       -0.046151727 -0.034939725 0.017627135 -0.03653202
0001e0 86 52 41 3d 02 c6 7c 3d 90 de 2b 3d 2a 59 bd 3d
       0.04719784 0.061712272 0.0419603 0.09245522
0001f0 96 48 83 ba b6 92 d0 3d 9b de bc 3d 8f ab 13 bb
       -0.0010016139 0.10184233 0.09222146 -0.0022532677
000200 4c 69 f0 3d 9f 0a 3b 3d 7d e3 87 bd fe 07 f7 bd
       0.11738834 0.045664426 -0.06635187 -0.12062071
000210 59 1b 9d bc a9 25 c4 3b 71 4c 44 3d 4b 48 03 bc
       -0.01917808 0.0059859348 0.047924463 -0.008012841
000220 c6 20 98 3d 2b 73 21 3e 40 96 1f 3d 0f fd b4 bc
       0.07428126 0.1576659 0.03896165 -0.022093324
000230 88 88 a7 bc 6f ca 6b 3b 31 31 01 bd d9 ae 44 3d
       -0.020450845 0.0035978814 -0.031541053 0.04801831
000240 5f d2 ac bd 1c 95 48 3c 7c 99 71 3d 2e de a0 3d
       -0.084385626 0.012242582 0.058984265 0.078548774
000250 96 5a e6 bc 74 da 07 3d de 69 4c bc 5f 04 5d 3c
       -0.028119367 0.033167318 -0.012476413 0.013489812
000260 d7 a9 15 be 2d 75 d2 3d 17 7c 04 3d e0 0f e8 3c
       -0.1461557 0.10276256 0.032344904 0.028327882
000270 79 bd 83 bd da c1 58 3d e3 ea 25 bd 97 2b 44 bd
       -0.064326234 0.052919246 -0.04050721 -0.047893133
000280 37 6e ba 3d 1c 5b 05 3e 97 6b 9f 3d 7b d5 bc bb
       0.09103053 0.13023037 0.07784193 -0.0057627535
000290 09 c4 90 bd b9 f9 a3 bd 8b 40 07 3d c5 c4 80 3d
       -0.07068641 -0.08006615 0.033020537 0.06287531
0002a0 0d 20 01 be 69 8b 23 3d 5f 4d a2 bd ee 67 c0 3c
       -0.12609883 0.039927874 -0.079249136 0.023487058
0002b0 1f d6 88 bc ca 92 2e bd 89 b0 83 bd 65 32 42 bb
       -0.016703663 -0.042620458 -0.06430156 -0.0029632088
0002c0 79 3d 63 3d dc 05 e7 ba f3 12 6a bd b0 6f a7 bc
       0.055478547 -0.0017625648 -0.057146978 -0.020438999
0002d0 02 6c 09 bd a2 90 f6 bc a4 37 0b 3c 6f c3 08 bd
       -0.03355027 -0.030098263 0.0084971525 -0.033389505
0002e0 90 31 53 3d 95 69 cc bc 4f 59 b0 3d 27 27 18 bd
       0.05156094 -0.02495269 0.08610784 -0.037146714
0002f0 cc d5 cb bd 3a df bf bd 22 96 43 bd 42 91 34 bd
       -0.09952888 -0.09368749 -0.0477506 -0.04408384
000300 5e 45 d7 3d 9b df 8f 3d 34 19 b9 bd 18 25 df 3d
       0.105112776 0.07025071 -0.0903801 0.10895747
000310 98 02 84 3c 87 15 99 3d c1 3b 12 3d 35 70 c5 bc
       0.016114518 0.07474809 0.035701517 -0.024101356
000320 48 1c 99 3b be 90 78 3d 42 8c 52 bc e8 73 79 3c
       0.004672561 0.060684912 -0.012850823 0.015225388
000330 d7 60 df bb d2 70 dc 3d 3c 4b 86 bc d7 18 42 3d
       -0.006816964 0.10763706 -0.016393296 0.04738697
000340 c1 b0 74 bb e6 ae 82 bd 40 3b 04 be 57 04 b9 bc
       -0.00373368 -0.063810155 -0.12913227 -0.022585077
000350 02 1b 40 bd 22 11 f1 bd e1 a7 72 bb 6a f1 c2 3d
       -0.046900757 -0.11770846 -0.0037026333 0.09518702
000360 31 57 0a bd 7a b3 b5 bd c5 25 ed 3b 5a a7 4c bc
       -0.03377456 -0.08872123 0.0072371685 -0.012491072
000370 dc fb 6b bd 3d 50 04 bc e6 98 9b 3d c9 70 89 3d
       -0.05761324 -0.008075771 0.075975224 0.06710965
000380 36 51 4c bd 7b c0 00 bd aa 8e a9 3c 08 b4 04 3e
       -0.049882136 -0.031433564 0.02069791 0.12959301
000390 db 0d be 3c bf 30 57 3d 1a 23 bb 3c 4b 1c 80 3b
       0.023199966 0.052536722 0.022843886 0.003909623
0003a0 df 87 d6 3a 90 fb b8 bd 1d 5e ec bd c8 70 5e bd
       0.0016367397 -0.09032357 -0.11541388 -0.054306775
0003b0 ae 0e d2 3d 5c 34 85 3c ce 92 42 bd 4e e2 37 3d
       0.10256706 0.016260318 -0.047503285 0.044893555
0003c0 a5 08 41 bd 54 03 8f 3d 75 1a 16 3d bd a1 b6 bc
       -0.047127385 0.06983057 0.036646325 -0.02229392
0003d0 7b a6 04 3e 54 35 3a bd d9 ff d9 bc b7 4a e5 bc
       0.12954132 -0.045461014 -0.026611255 -0.027989728
0003e0 02 c2 95 bd 25 7f 50 bd 40 0b ec 3d fe 92 29 bd
       -0.07312395 -0.050902504 0.11525583 -0.04139995
0003f0 08 91 0e bd a6 77 e4 bc 0f 1f 16 bc 4f 2b 9d bd
       -0.03480628 -0.027889084 -0.009162678 -0.07674276

actor.2.bias f4 [256]
000000 49 80 47 3c f2 a0 80 bd 3a 39 f2 bb 47 1e c7 bd
       0.012176582 -0.06280698 -0.007392076 -0.09722572
000010 51 b5 75 bd 82 9b dc bb 7d c3 41 bd b5 e5 b7 bd
       -0.05998737 -0.006732405 -0.047305573 -0.0897936
000020 9c 7f ef 3b 62 36 9d 3c 55 d3 bd bc 7f 69 9f bc
       0.0073089134 0.01919097 -0.02317206 -0.019459484
000030 d5 cf 05 be df 24 13 be bd 2f 9e ba e6 6f c2 bd
       -0.13067563 -0.14369534 -0.001206867 -0.09493999
000040 4d ad 1d bc 8d af c8 bd 30 cf 8d 3a 1c 13 9d 3d
       -0.009623838 -0.09799109 0.0010819193 0.076696604
000050 2f f9 2b bc 6a 3f dc bb 03 44 23 bd b5 ff 42 3c
       -0.010496422 -0.0067214267 -0.039859783 0.011901786
000060 f5 d5 45 bd 22 9f 68 bd b9 6d 71 bd dc e2 a7 bd
       -0.04829975 -0.056792386 -0.05894253 -0.08197567
000070 53 0d 78 bd d7 12 3b bd ed c3 74 bd 6e 36 c9 bd
       -0.060559582 -0.045672264 -0.059757162 -0.09824835
000080 3d cb d9 bc d2 e8 cb bd 00 a5 7d bd ee 9f 4c bd
       -0.02658617 -0.09956516 -0.061924934 -0.04995721
000090 6f 76 8e 3c 78 ca 35 bd ff 55 66 bd 0b 27 4d bd
       0.017390458 -0.044382542 -0.056234356 -0.050086062
0000a0 74 30 bd bd e9 10 df bd b1 7e df bc ba da cf bd
       -0.09237757 -0.10891897 -0.02728209 -0.10149141
0000b0 d5 fa d3 bd 47 bd 14 bd ca ff 7c bc 05 74 0e be
       -0.10350577 -0.03631332 -0.015441844 -0.13911445
0000c0 1a 28 0a bd 64 f0 13 be ab c5 61 bd f1 55 19 be
       -0.03372965 -0.1444717 -0.05512015 -0.1497419
0000d0 82 01 94 bd 04 cf d8 bd 7d 37 68 bd d2 17 5e bd
       -0.0722685 -0.1058636 -0.056693543 -0.054221936
0000e0 a4 23 92 bd 15 73 3d bd e8 5b 1c 3d d1 b7 a8 3c
       -0.07135704 -0.04625233 0.038173586 0.020595463
0000f0 4c e9 b3 bd 74 d2 b5 bc 25 79 32 bc 51 9c 5a bd
       -0.08784732 -0.022195078 -0.010893141 -0.05337173
000100 e2 3f c7 3c 2c 68 77 bd fe 95 2f bd ed 6b d6 3c
       0.024322454 -0.06040208 -0.042867653 0.02617451
000110 e6 d4 0f bd 38 7b 10 bd 3f bd fb bc 2b ff 2f bd
       -0.035115145 -0.03527376 -0.030729888 -0.042967957
000120 3c 5b 2e 3c 4c 51 41 bd 21 6a 95 bd 7a ae 9b 3c
       0.010641869 -0.04719667 -0.07295633 0.019004095
000130 1c 81 3f 3b 91 35 18 be 5b 81 96 bc 54 d8 83 bd
       0.0029221242 -0.14864184 -0.018372228 -0.06437746
000140 7d ec 92 bd d2 c1 b7 bd 84 e1 77 bd 98 be be bd
       -0.07174013 -0.08972515 -0.060517803 -0.093136966
000150 b8 e3 2e 3b 3d 1f 2b 3c 3b 3d 8c bd 29 35 90 bd
       0.0026686024 0.0104444595 -0.06847616 -0.070413895
000160 b5 88 a8 bc 90 ce ce bd db 83 3f bd a4 25 5e bd
       -0.020573 -0.100979924 -0.046756607 -0.054235116
000170 48 e4 8d bd 02 d6 f7 bd 25 77 6e bc 01 77 75 3b
       -0.06928307 -0.121013656 -0.014554773 0.0037454965
000180 ea a5 db 3c fe be 70 3c 19 cc bf bb 53 b2 e5 bd
       0.026812512 0.014693974 -0.0058531878 -0.11215653
000190 5f 1d a0 bd 7f 50 84 3c 8c 3e 35 bb 67 c2 a6 bc
       -0.07818102 0.016151665 -0.002765569 -0.02035637
0001a0 63 26 6d bb 77 35 ab bd 63 5a 4b bd ae 51 42 bd
       -0.003618621 -0.08359807 -0.049646746 -0.047441177
0001b0 23 9c a5 bd 11 cb ae bd 9f 2a 7d 3c 90 3d c9 bc
       -0.08086421 -0.085348256 0.015452056 -0.024565488
0001c0 b6 13 a4 bd ab 71 52 bd 14 78 21 bd 92 4c 23 3c
       -0.08011572 -0.051377933 -0.039421156 0.009966986
0001d0 99 85 ed bc b3 cc c3 bd 35 2c b8 bd bc ec 46 bd
       -0.028994368 -0.09560528 -0.08992807 -0.04856561
0001e0 5b 40 16 bd 28 b0 8e bd f7 5d 14 be ac 14 f6 bd
       -0.036682468 -0.06967193 -0.1448897 -0.120156616
0001f0 24 01 1a 3d 18 e7 97 bd cb 47 5c 3c 7b e8 03 3b
       0.037598744 -0.074171245 0.013444851 0.0020127583
000200 d3 cb 13 bd 44 0b 87 3c 74 95 1e 3d ec 2d ff bd
       -0.036083054 0.016484864 0.03871675 -0.12459931
000210 7b fb 58 bd 9b 60 8f 3b bc f1 c7 bd d2 33 e8 3c
       -0.052974205 0.00437553 -0.09762904 0.028345022
000220 5e f6 8b bd 25 4c 92 bd 4d e6 39 3d 0f e5 39 bd
       -0.068341 -0.0714343 0.045385648 -0.045384463
000230 71 ae 5d bd 75 e1 96 bc 95 97 ce bd 08 07 2b bd
       -0.05412144 -0.018418053 -0.10087506 -0.041754752
000240 e0 7b 52 bc d9 40 2e bb a6 12 34 bd 46 85 0b 3c
       -0.012846917 -0.0026588945 -0.043963097 0.008515662
000250 fc 65 7e bc 3c f1 b1 bc 2c ae 8f 3c df 2b 89 bc
       -0.015527245 -0.021721475 0.017539106 -0.016744552
000260 55 4b 8a bd 3d f1 82 bc 3e fd b0 bd 64 17 d1 bd
       -0.0675265 -0.015984172 -0.08642052 -0.102095395
000270 9c 19 e6 bd 8a 73 11 3d 1f 70 9b 3b 1e 41 1f bc
       -0.11235353 0.035510577 0.0047435905 -0.009720115
000280 03 14 14 3d 54 7f aa bd e0 60 92 bd df 93 82 bd
       0.036151897 -0.08325067 -0.07147384 -0.063758604
000290 e6 af 55 bd 6b 2b d7 bc 70 d0 b4 bd dd 72 aa bc
       -0.052169703 -0.02626582 -0.08828819 -0.020806724
0002a0 84 36 5e bd 1c 3f f7 bb 12 f3 01 bc 03 ba 6f bc
       -0.05425121 -0.007545365 -0.007931488 -0.014631751
0002b0 e8 83 e9 bb 5f 69 ca bd 08 e0 0d bd 0b 44 37 bd
       -0.00712632 -0.09883379 -0.03463748 -0.044742625
0002c0 f9 9c fe bd 20 3d f6 bc 96 bf 48 bd d4 e8 39 bd
       -0.12432284 -0.030058444 -0.049010836 -0.045388058
0002d0 fe ae 01 3c 0a 02 9d 3c 7a 20 49 bd ae 0c 44 bd
       0.007915257 0.019166011 -0.049103238 -0.047863655
0002e0 7c d4 f0 bc 51 8f 74 3c 90 46 ff bd 14 39 ec bb
       -0.029398195 0.014926747 -0.124646306 -0.0072089527
0002f0 b7 e7 1f bd cb 76 a0 bd 06 56 62 3c 45 f8 91 bd
       -0.03903934 -0.07835158 0.013814455 -0.07127432
000300 7b 63 80 bd 32 22 82 bd 27 22 83 bd 7f 07 fd bd
       -0.062689744 -0.063541785 -0.064029984 -0.123549454
000310 a6 26 35 bd 98 9d c4 3c 72 65 32 be 83 31 00 be
       -0.04422631 0.024000928 -0.17421511 -0.12518887
000320 f7 fc 30 3b 73 43 b3 bc cc 3b a7 3d 6a 36 33 bd
       0.0027006248 -0.021882748 0.08165702 -0.043753065
000330 bc 23 1f 3b 56 c1 0e 3c f9 cd 39 bc 14 36 ba bc
       0.0024282774 0.008713087 -0.011340612 -0.022730865
000340 93 e4 5d bd 17 38 c8 bd 50 a7 c4 bc 9f 1c 12 3d
       -0.054173063 -0.09776323 -0.024005562 0.035671826
000350 20 7a 8a bd 57 bd 5a bd 08 b4 de bd 60 dd ee bc
       -0.06761575 -0.053403225 -0.10874182 -0.029158294
000360 43 41 0e be a0 4b b5 bc 9f 40 c7 39 86 01 23 bd
       -0.13892083 -0.022130787 0.00038004384 -0.039796375
000370 40 8d a2 bd 37 d0 1d bd 0e 96 35 bd 6e 3b 0c 3d
       -0.079370975 -0.038528647 -0.044332556 0.034236364
000380 13 a6 35 3d d8 02 bf 3c 11 2b 92 bb ac e6 e5 bd
       0.044347834 0.023316786 -0.0044607003 -0.11225638
000390 e2 81 f6 bd a9 b6 9e bd b6 fc 21 bd 37 ec 05 bb
       -0.12036492 -0.077496834 -0.039547645 -0.0020434984
0003a0 99 e4 53 bd e1 e2 93 bd 3b cc 06 bd c3 7b 36 3d
       -0.05173168 -0.07221008 -0.032909613 0.044551622
0003b0 3b 6b f9 bc 3c 61 94 bc e6 64 98 bd 0b 32 2c be
       -0.03044664 -0.018112771 -0.0744112 -0.16815965
0003c0 72 54 2d be c7 aa a2 bd d5 43 d1 bc 58 50 bd bd
       -0.16926745 -0.079427294 -0.02554504 -0.0924384
0003d0 3a ff c4 bd 37 55 a3 bd 1d fe b2 ba 34 16 00 3d
       -0.09618993 -0.07975238 -0.0013656054 0.031271175
0003e0 dc 6e 95 bd 69 57 68 bd d2 34 9c bb 89 fc 77 bd
       -0.072965354 -0.056723986 -0.004767039 -0.06054357
0003f0 68 74 81 bd d8 ea c3 bc 28 8c 61 bd c7 ad fb bb
       -0.06321031 -0.023915693 -0.055065304 -0.007680628

actor.4.weight f4 [128, 256]
000000 47 c8 5e bd 2e 05 53 3c e8 a1 aa 3c c5 e5 7a bd
       -0.054390218 0.012879653 0.020829156 -0.06125428
000010 78 fa 18 bd 5c 4c 2c 3d d3 0e a3 3b 0f 91 6a 3b
       -0.03734824 0.04206501 0.0049761324 0.0035792028
000020 c5 6a ee 3c a1 81 26 3d 2d 32 b3 3c fe 02 0a 3d
       0.029103646 0.040650968 0.021874512 0.03369426
000030 08 11 a9 bb c9 40 82 bb e8 f7 15 3b 29 fd 86 bd
       -0.005159501 -0.003975008 0.002288336 -0.06591255
000040 c6 c0 c6 bc 6b a5 e3 bc fe 75 f3 bc 36 00 2b bd
       -0.024261843 -0.027788838 -0.029719349 -0.041748248
000050 4a d4 2f bd bc db 70 bc 75 c7 84 3d 9a e0 62 3d
       -0.042927064 -0.014700826 0.06483356 0.055389978
000060 97 3a ab bc 42 e6 e9 bc 86 68 6a bd a9 75 4a 3d
       -0.020901961 -0.028552178 -0.057228588 0.049428616
000070 49 c6 d0 3c 72 4b b2 bc af 1e da 3a f3 a7 c5 3c
       0.025485175 -0.02176449 0.0016641225 0.024127936
000080 77 99 2e 3d 33 2d 4a 3d 3d bf 3d 3d 6b 26 23 bc
       0.042626824 0.04935951 0.046324957 -0.00995789
000090 7b 7c 74 3b 4c 8c c1 3c 23 e7 3f 3d 38 92 50 3d
       0.0037305641 0.02362647 0.04685129 0.050920695
0000a0 a4 ef 66 bc cd d2 a1 3c 9c a7 37 3d 17 9b 6f bb
       -0.014095221 0.019753838 0.04483758 -0.0036560947
0000b0 71 b2 3a bd da 91 01 3d 0c b0 95 3c 6b 1e fb 3b
       -0.04558033 0.031633236 0.018272422 0.007663538
0000c0 f2 c3 65 3d 41 37 ae bd 10 09 6c 3c fb f1 07 3d
       0.05609507 -0.085066326 0.014406458 0.033189755
0000d0 96 25 88 ba 8d 31 85 bc 94 c6 78 3c 47 60 c5 3c
       -0.0010387178 -0.01625898 0.015184063 0.02409376
0000e0 b5 b7 c6 3c 0d b2 bf 3d 25 61 7f bc a9 99 1b bd
       0.02425752 0.09360132 -0.015587126 -0.03798834
0000f0 72 a0 24 bd b6 d8 4a bd e0 e6 86 bc 70 10 5a 3d
       -0.040192075 -0.049523078 -0.016467512 0.053238332
000100 7a 1e 05 3b 73 17 da 3b c8 96 7f 3d 4f de f4 3c
       0.0020312355 0.0066556274 0.062399656 0.029891161
000110 16 35 84 bd ee cf 41 3c a2 f0 56 3c 25 be 39 bc
       -0.06455438 0.011829359 0.013118895 -0.011336838
000120 c5 18 13 be 1c 6e 9f bc 25 db 63 3d 78 4a 78 3d
       -0.14364918 -0.019461684 0.055628914 0.060617894
000130 c1 ae 0b bd f1 93 6e 3c 0e 7a d1 bc 84 40 9c 3b
       -0.034102205 0.014561639 -0.025570896 0.004768433
000140 9d 4d 17 bb f1 6b 5a bb c4 2f e6 3c c4 be ab ba
       -0.0023087033 -0.0033328498 0.028098948 -0.0013103117
000150 84 26 94 3b 69 2f 23 3d 42 99 46 bd a3 c9 f5 3d
       0.004521193 0.039840136 -0.048486 0.1200135
000160 3d f5 9c bd e2 74 a6 3c d9 d7 20 bd 0e 42 84 bc
       -0.07663963 0.020319406 -0.03926835 -0.016144779
000170 0d 16 3c bd 29 0c b9 3d 95 d9 cd bc e8 06 17 3d
       -0.045919467 0.090355225 -0.025128165 0.03687182
000180 38 7e dd 3c 80 55 8c 3d a0 52 51 3c e9 13 09 3c
       0.027037725 0.06852245 0.012776047 0.008366563
000190 a3 5b 14 bb 76 62 81 bd 1d 9b aa bc 83 d1 66 bd
       -0.0022637628 -0.06317608 -0.020825917 -0.05635215
0001a0 c1 09 b3 bc 83 71 71 bc 3b 0b 28 bc 0e fc a0 3b
       -0.021855237 -0.014736536 -0.010256584 0.0049128598
0001b0 58 b3 13 3d a5 ba 0d bd ab 27 22 3c a5 9b 81 3b
       0.036059707 -0.034601826 0.009897153 0.003955322
0001c0 b9 4d 15 bd 92 eb 57 3d ce 63 00 3d 26 37 89 3b
       -0.036451075 0.05271489 0.03134518 0.0041874824
0001d0 b7 ba 92 3d c5 15 47 3d f4 b1 ae bd 00 49 d4 3c
       0.07164519 0.048604745 -0.085300356 0.025913715
0001e0 3c 8a 59 3d a4 90 82 3d 38 8f bc 3c b5 e8 b8 bd
       0.053110346 0.06375244 0.02301751 -0.0902876
0001f0 f5 81 87 3d 64 da 1f bd 2e a5 3e bd 60 fe ae 3c
       0.06616584 -0.039026633 -0.046544246 0.02136153
000200 73 2d 33 3b 36 97 e1 bc f7 72 86 3c ef cd 23 bc
       0.0027340322 -0.027537923 0.016412241 -0.009997829
000210 33 10 4c 3d 6b 08 c8 3d 06 77 02 3d 15 4d 32 3b
       0.049820136 0.097672306 0.03185179 0.002720659
000220 82 00 16 3d 01 27 fa bb d9 6f 09 be 00 03 c0 bc
       0.036621578 -0.007634044 -0.13421573 -0.02343893
000230 92 67 59 bc 05 c2 2c bd cb 62 b3 bd 0c c8 c1 3c
       -0.013269322 -0.04217722 -0.08759078 0.02365496
000240 e2 18 58 3d 65 18 7a bc f2 34 77 3b 69 6b c1 bb
       0.052758105 -0.015264605 0.0037720767 -0.005902697
000250 22 81 d0 3c 49 3b 57 ba d7 50 4b 3c ad 3b 9e bc
       0.0254522 -0.00082104333 0.01240941 -0.019315565
000260 0a e1 40 bd f4 a5 1a bc c1 cc c8 3c db f7 9d 3d
       -0.047089614 -0.00943898 0.024511697 0.0771329
000270 33 bf 14 3d 46 73 1a bd 95 3c 9c 3d c4 c7 e1 3c
       0.036315154 -0.03770759 0.076287426 0.027561076
000280 6b ed 97 3c 10 c4 c2 bb da 9b 0c bd 67 d8 5c bc
       0.018545827 -0.0059437826 -0.03432832 -0.013479329
000290 54 25 b4 3d 27 a7 cd bc ba 78 7c bd 3b 98 02 3e
       0.08796182 -0.025104119 -0.06163857 0.12753384
0002a0 98 a8 de bc 94 d0 3f ba 97 af c7 bd 72 e6 88 bd
       -0.027180001 -0.00073171523 -0.09750288 -0.06684579
0002b0 31 95 2b bd 5e 0d 9d 3d f9 23 1a bd 2a f3 84 bc
       -0.041890327 0.07668565 -0.037631962 -0.01622923
0002c0 02 aa 0c bd 7c 30 46 3d 0a 4d 97 3b 49 3b e3 bc
       -0.03434182 0.048386082 0.004617338 -0.02773823
0002d0 0f f4 a7 ba 20 e2 ba 3c 3e fb f3 3b 35 1b d7 bc
       -0.0012813824 0.022812903 0.007445722 -0.02625809
0002e0 b4 80 13 3d 08 cb c8 3c 79 cd 75 bd 15 d9 70 3d
       0.036011413 0.024510875 -0.060010407 0.058800776
0002f0 5e aa bd 3c a6 1b 9d bc ca 8d 43 3d d4 3c 9c 3d
       0.023152526 -0.019178223 0.047742642 0.076287895
000300 ed 52 32 3c eb fb e0 bc 95 53 26 3d 32 52 7c bd
       0.010884029 -0.027463874 0.040607054 -0.061601825
000310 95 f1 51 38 8f 4b 78 3d 56 84 30 bd 22 c9 4c bd
       5.0054474e-05 0.060618933 -0.043094955 -0.049996503
000320 1d 0e 72 3b a9 fb 3e bd 08 d6 62 3c f9 41 b5 3c
       0.0036934682 -0.04662672 0.013844974 0.022126185
000330 c9 7f 7c bc f6 be dc 3c 7d d7 cb bc eb fb 65 3b
       -0.015411326 0.026946526 -0.024883026 0.0035092782
000340 fb 55 dc ba 21 42 62 3c 97 ab 4e 3c 8b d8 12 3b
       -0.0016810292 0.013809712 0.012614152 0.0022406902
000350 24 a4 81 bd 2c f9 d8 b9 0c 10 85 3c 3d d1 b8 3d
       -0.063301355 -0.00041384378 0.016243003 0.09024284
000360 f1 bc 41 3d 86 b4 4d 3d 55 2d f1 bc 7e 79 eb 3c
       0.04729933 0.05022099 -0.029440561 0.028744455
000370 42 13 f7 3c 33 6f 9c 3c c9 45 02 3d 70 be 1d bd
       0.03016055 0.019095993 0.031804834 -0.038511693
000380 10 a5 0e bc 68 f9 1b 3c 15 51 8a bd 7e 90 97 bd
       -0.008706346 0.009519912 -0.067537464 -0.074006066
000390 ce 9c 28 3d 55 c1 62 3d 0a 1a b8 bc 9f ed c3 3a
       0.041165166 0.055360157 -0.022473354 0.0014948136
0003a0 65 c2 f0 ba 4e f6 d1 3b a4 88 4d bd bd 52 da 3d
       -0.0018368481 0.0064075356 -0.05017914 0.10660312
0003b0 8c 21 87 bd 50 1f 86 bc 11 ed 61 3d c7 f4 45 3c
       -0.065981954 -0.016372353 0.055157725 0.012082285
0003c0 46 9c f9 3c a1 75 24 3d 8a 98 91 bd ee 64 36 3d
       0.030470025 0.040151242 -0.07109173 0.044529848
0003d0 72 1a 8b 3b 60 74 23 bd d4 26 4b 3d 83 8f 0a bb
       0.004245096 -0.039905906 0.049597576 -0.0021142669
0003e0 4f 9e ba bd 8d cb 84 3d cf 27 88 3d e9 33 22 be
       -0.09112226 0.06484137 0.06648218 -0.15840115
0003f0 86 17 13 bc 2a 11 8d 3d 45 8c 7b 3d 5b dc 94 bd
       -0.008977776 0.068880394 0.06141307 -0.07268592

actor.4.bias f4 [128]
000000 45 b6 ae bc 97 3b 15 bc 23 de ac bc af e7 86 3c
       -0.021327147 -0.009108446 -0.021102017 0.016467897
000010 43 c4 30 bd 04 da 9a bd 67 9c 1f 3c 1c 52 c2 bd
       -0.04315592 -0.075611144 0.009741879 -0.09488317
000020 ed 29 02 3d 63 6a 7a 3c 30 36 23 bd 19 26 8f 3c
       0.031778265 0.015284154 -0.0398466 0.017474221
000030 a7 22 dc bc 7e b2 a2 3c 1c 7d 39 3d 51 50 15 3d
       -0.026871992 0.019860502 0.04528533 0.03645355
000040 2b e0 93 bc 4c fd 3c bd 92 18 62 3d e3 e0 4f 3d
       -0.018051228 -0.04614 0.055199213 0.050751578
000050 f4 cb e4 bd 56 d9 dd 3c b2 ea 4c 3d e3 6f 32 bd
       -0.111717135 0.027081173 0.05002851 -0.043563735
000060 dd 98 13 bd 59 82 3b 3d 69 31 b7 bc 85 b9 d8 3b
       -0.036034454 0.045778606 -0.022362428 0.0066139125
000070 23 f2 be 3c 79 96 1a bd e6 31 7d bd 96 3b 8f bd
       0.02330882 -0.03774116 -0.061815165 -0.06993787
000080 96 81 35 3d dc 1c 95 bd 05 f8 82 3c ce 9c cb 3c
       0.044313036 -0.07280895 0.015987406 0.024855044
000090 60 f7 75 bd c9 7c dc 3c 35 56 a6 3d 91 59 a5 bd
       -0.06005037 0.026914971 0.081219114 -0.08073724
0000a0 78 f8 0a 3d 13 37 e9 3c 10 8c 42 3d bc c9 5a bc
       0.033928365 0.028468644 0.047496855 -0.013353761
0000b0 93 be 2d bb 70 41 1c bc 1f 1c 24 3d cb e3 97 3d
       -0.0026511296 -0.009537086 0.04006588 0.07416495
0000c0 e0 2f 0e bc b2 6b c1 3d 3f e2 6c 3d 53 c8 fa 3c
       -0.0086784065 0.094443694 0.057832953 0.0306131
0000d0 83 45 c9 bc a0 72 54 3d 9b 2e 80 3d f1 a3 5b 3c
       -0.024569279 0.051867127 0.06258889 0.013405786
0000e0 f0 bf da bc 00 8f 65 3b 84 db 87 3b bb 98 82 bd
       -0.026702851 0.0035027862 0.0041460413 -0.06376787
0000f0 25 90 65 bc 3b 95 f2 3b 85 94 1f bd 6a a8 65 bd
       -0.0140114175 0.0074030436 -0.03896 -0.056068815
000100 9f b6 73 bd 1f 6b 07 3d b8 22 b8 bd a8 61 bb bb
       -0.059500333 0.033061143 -0.08990997 -0.0057184286
000110 07 fd c2 bd 30 d6 50 bd 8c a9 84 bd 49 c0 3d bd
       -0.095209174 -0.050985515 -0.06477651 -0.046325956
000120 c1 05 0f 3d 3a b2 52 bc a4 53 cb bc 7b db 65 bd
       0.034917597 -0.012859875 -0.024820156 -0.056117516
000130 5d 00 37 3d 8a e3 70 bd c2 ce 71 bd c3 11 ae bd
       0.04467808 -0.05881075 -0.05903507 -0.084994815
000140 fb 8a a7 3a 8f 21 ae bd 6e 26 93 bd 35 81 7f bd
       0.0012782508 -0.085024945 -0.07185064 -0.06237908
000150 f4 7e 24 bd 10 ca ad bd ca 2f 41 3c 86 a1 16 3d
       -0.040160134 -0.08485806 0.011791179 0.036775135
000160 9d b3 b9 3b b8 3e 2f 3d 98 ad 94 3d 41 9a 35 bd
       0.0056671635 0.042784423 0.07259673 -0.04433656
000170 0c bd 0f bd 48 5a 81 bc c4 c6 a7 3c 07 f8 64 3d
       -0.0350924 -0.01579012 0.020480521 0.0559006
000180 30 fe a3 bd 8f d7 13 3c ef 2a 6a 3d ee 64 fb bc
       -0.08007467 0.009023561 0.05716985 -0.030687775
000190 8f 1c 2b 3d eb fc 54 3d df 2d c2 bc 92 b9 a1 bd
       0.041775282 0.051999014 -0.023703514 -0.07896723
0001a0 b7 6f 95 3b 05 0a d0 bd 06 49 a0 bd 51 76 85 3c
       0.0045604366 -0.10158161 -0.07826428 0.01629177
0001b0 3f 00 fe 3c f9 d9 05 3d d4 78 53 bd f6 c0 32 bd
       0.031005977 0.032678578 -0.051628903 -0.043641053
0001c0 94 41 b0 3c 46 20 69 bc bd 5f 93 3a 2c 0a 00 bd
       0.021515645 -0.014228886 0.0011243742 -0.0312597
0001d0 e5 6b 12 3d 74 6a 68 bd cf b4 a7 bd 13 88 94 3d
       0.035747427 -0.056742147 -0.081887834 0.072525166
0001e0 b0 ad 80 bd 7d db 3f bd 0a c4 34 bd 58 9c 17 bc
       -0.06283128 -0.04684018 -0.04413227 -0.009253584
0001f0 08 b9 ae 3c dc 04 87 bd 82 10 4c 3c f2 a9 53 bd
       0.021328464 -0.06592724 0.012455108 -0.051675744

actor.6.weight f4 [29, 128]
000000 c1 e8 88 3d 4d 45 22 3c 1e 3f b0 3c 91 40 2c 3c
       0.06685019 0.009904218 0.021514472 0.010513441
000010 0d f6 28 3d 82 e5 4f 3b fe f8 15 3c da 33 1e bd
       0.041250277 0.003172249 0.009153603 -0.03862367
000020 f1 7b 80 3b dd fb f2 3b ba 84 64 bc 9e 9e 62 3c
       0.003921025 0.0074152783 -0.01394766 0.013831763
000030 76 5c 33 3d 7d 16 24 3d 00 b7 73 3c 28 21 69 3d
       0.04378935 0.04006051 0.014875174 0.056916386
000040 8e d1 ef 3a 17 6d d0 3c 22 5a 0f bc e9 d0 10 3d
       0.0018296705 0.025442643 -0.008749517 0.035355482
000050 be ba c9 bc d8 ce 0a bd 8f 90 14 bd d1 a5 f0 3b
       -0.024625178 -0.033888668 -0.036270674 0.0073439856
000060 e9 66 4b bd 87 c2 16 3c 0a 3c 9a bc 6a 2d 1c bc
       -0.04965869 0.009201652 -0.018827457 -0.009532312
000070 b0 8e 60 bd bd 22 77 bd 8c 82 b7 3c 29 c8 70 bc
       -0.054823577 -0.060335863 0.022401117 -0.014696159
000080 3b b2 54 bb 5a d6 a2 ba e2 1c 09 3d 29 a8 c4 3c
       -0.0032454866 -0.0012423501 0.03347481 0.024005966
000090 f4 6e c6 3d 30 e7 85 3b 50 49 99 bb b2 f0 d8 bc
       0.096891314 0.0040863976 -0.004677929 -0.02648196
0000a0 72 a4 dd 39 07 4d a5 bc d7 95 51 bd 8f 7e 9a 3b
       0.00042274926 -0.020178331 -0.05116829 0.004714794
0000b0 53 64 a4 ba 3d 18 43 3d 1f b3 8b bb 20 21 93 bc
       -0.0012542106 0.047630537 -0.0042632963 -0.017960131
0000c0 91 08 0e bd 5a e4 0b bd c8 e1 f1 bb ea ae e0 bb
       -0.03467614 -0.03415332 -0.0073816516 -0.006856789
0000d0 6c 50 7e 3c 57 aa 12 3d fe a8 41 3d b2 8b c2 bc
       0.015522104 0.03580698 0.047280304 -0.023748253
0000e0 9e 37 83 3b c8 6e 3a 3c c4 06 f2 bb 8d 0f c3 bc
       0.004004433 0.011378951 -0.0073860604 -0.023811126
0000f0 86 ae 21 bd 26 89 4b 3b f1 70 6a bd b1 06 3d 3d
       -0.03947308 0.0031057089 -0.057236616 0.04614896
000100 eb b5 27 bc e5 b0 f3 bc b3 ba af 3c 6a b1 0f 3b
       -0.010236244 -0.029747436 0.02145133 0.0021925815
000110 88 e4 25 3b 2d 2e bd bc 53 f5 b6 3c 3d 84 36 3c
       0.0025313217 -0.023093307 0.022333777 0.0111399265
000120 f8 6a 14 bc 9b ee 59 bb 9a 3d 5a bd b9 77 09 3c
       -0.009058706 -0.0033253792 -0.053281404 0.0083903605
000130 6b e9 ca bc 1e 1c 95 bc 89 16 c7 bc 66 1d 21 ba
       -0.024769505 -0.018201884 -0.024302738 -0.00061460433
000140 65 3a fb bd 9b 35 00 bb 6c fe 2b 3a 62 d1 5a 3b
       -0.12266997 -0.0019563201 0.0006561044 0.0033388962
000150 15 62 9b bc 1d 58 15 3d 29 1d a3 3c 7d 71 ab ba
       -0.018967668 0.036460984 0.019911366 -0.0013080087
000160 73 8d 0a 3c 30 96 01 bd fb b9 c9 bc 20 02 cb 3a
       0.008456576 -0.03163737 -0.024624815 0.0015488304
000170 3e 7f e8 bb 4a 5d 22 3a 4f 1f aa ba a6 ee 60 3c
       -0.0070952466 0.0006193711 -0.0012979301 0.013728773
000180 f0 d1 3e 3c a7 dd 10 bc 6b 10 be bb 94 14 0d 3d
       0.011646733 -0.008841909 -0.005800297 0.034443453
000190 ed e5 79 bb 84 2e ac 3c b2 ab e3 bc 3d fd 22 3d
       -0.0038131431 0.021018274 -0.027791832 0.039792288
0001a0 1a b8 85 3c fb b4 84 3d c6 f9 59 bc 0b 77 95 bc
       0.016323138 0.06479832 -0.0133041795 -0.01824524
0001b0 88 96 c1 ba 81 f0 01 bc c4 12 a7 3c f2 fa 13 bc
       -0.0014769593 -0.007930876 0.02039469 -0.009031998
0001c0 42 13 5d 3c b3 49 ff 3b 16 0a 3e 3b a0 ec d0 bd
       0.013493361 0.007790768 0.002899771 -0.10201383
0001d0 54 4c ec 3b 6c 51 ec bc 39 58 d3 bc 87 98 09 bc
       0.0072112475 -0.028847419 -0.025798904 -0.008398182
0001e0 7d 4e 95 3d 8c 61 a7 bb 1a 2f 81 3d 4c ef f1 3c
       0.07290361 -0.005108064 0.06307812 0.029533051
0001f0 9f ba d9 3b c9 ee 5b bc 0e 46 70 bb 01 62 97 bc
       0.0066445614 -0.01342363 -0.003666285 -0.01847935
000200 55 6f eb 3c 2e a9 34 3d 93 92 91 bd 1c 0f 0f 3c
       0.02873961 0.044106655 -0.07108035 0.00873163
000210 90 dc ad 3c 78 d0 23 3c 5f 77 23 bd 53 fc 98 bd
       0.021223336 0.009998433 -0.039908763 -0.07470002
000220 29 a6 a5 3a aa b9 93 3c e7 10 0c bd f7 a6 a0 3c
       0.001263802 0.018032867 -0.034195807 0.019610865
000230 92 84 87 3d 62 d6 1a 3d d9 76 93 bc 42 c6 bf bc
       0.06617083 0.037802108 -0.018001007 -0.023409966
000240 57 63 95 3c 94 e8 ea 3d 41 97 39 bc 80 5f 9e 3d
       0.018235845 0.11470142 -0.011327566 0.07733059
000250 41 d2 44 bd c4 67 c3 bc 9d f0 1a bd 00 22 89 3c
       -0.048052076 -0.02385319 -0.037827123 0.016739845
000260 9f c1 93 3c 65 9a d6 3b 9a 8a 70 3c e2 d0 f4 bc
       0.018036662 0.006549167 0.014681483 -0.02988476
000270 4f fb d9 3c 42 70 d1 3d 4b 32 a3 3c 70 a6 3a bc
       0.026609091 0.102264896 0.019921442 -0.011392221
000280 75 82 4e bc 94 ab 1e bd 52 cb af 3c 94 cf c7 bc
       -0.012604346 -0.03873785 0.021459255 -0.024390973
000290 9f 53 ef 3b 30 e5 92 3c 63 3e 84 3c 15 33 e3 bc
       0.0073036696 0.01793155 0.01614303 -0.027734319
0002a0 3b 05 07 3b 14 89 b3 bc 16 bb 79 3d a8 ea f1 bb
       0.0020602483 -0.02191595 0.060969435 -0.0073827095
0002b0 6f 1f 28 bc 8d 0a 6c 3d 95 30 00 bd 80 9a e6 bb
       -0.010261401 0.05762725 -0.03129633 -0.007037461
0002c0 b2 31 55 3d d8 91 36 3d 2f 18 16 3c 99 c0 4b bc
       0.052049346 0.04457268 0.009161039 -0.012436056
0002d0 30 3e 44 3c 86 0f b3 3c 2b b3 30 3d 07 b4 22 3c
       0.011977717 0.021857988 0.043139618 0.009930617
0002e0 18 02 07 3c cf 0e af bc ec 16 07 bc f5 b4 29 bd
       0.008240245 -0.021369366 -0.008245211 -0.04143234
0002f0 ab 6f 1c bc 9a 0f ef 3b 87 2a bb 3d 61 b5 03 3b
       -0.009548108 0.007295561 0.09138971 0.0020097124
000300 20 7d 82 bd 83 86 ac 3d 62 56 18 bd 59 bb 26 bb
       -0.06371522 0.084240936 -0.037191756 -0.0025441258
000310 94 8a f4 bc 07 d2 49 bd db d6 a4 bd 9d 35 1f bb
       -0.029851235 -0.049272563 -0.08048793 -0.002429343
000320 a4 89 44 3c 20 25 a4 bc f3 df 7d bc 89 d1 0b 3d
       0.011995707 -0.020037234 -0.015495288 0.034135375
000330 0d 71 14 bc ed 4b 60 bd ec 6d a5 3c 78 db ef bc
       -0.0090601565 -0.05475991 0.020194016 -0.029279456
000340 95 38 9d 3d 13 9d 06 bd e4 b5 86 bd 61 6d b7 3c
       0.07676808 -0.03286464 -0.06577662 0.022391023
000350 0a ae 62 bd 19 7a 06 3d e4 9c 21 3d d6 c3 0a 3d
       -0.055341758 0.032831285 0.039456263 0.03387817
000360 11 3f 51 3c 92 3d 02 bd 70 af d6 3c ea 51 27 bb
       0.012771384 -0.031797 0.026206702 -0.0025531002
000370 e2 d1 5a 3a c7 5d 6a 3d 9a da 0d 3c 5b 1e 0d 3c
       0.0008347315 0.05721834 0.008658076 0.008613194
000380 00 05 80 bc 66 83 6a 3c cd 3b e8 3c 4c 7e 0b bd
       -0.015627384 0.014313554 0.028348828 -0.034055993
000390 48 86 73 3b e9 a6 7c 3c 72 67 e7 3c 8a 3d 8e 3d
       0.0037158895 0.015420654 0.028247569 0.069453314
0003a0 8e cb 40 3d 51 f7 0c bd 86 5f 20 bb 97 7c 50 3b
       0.047069125 -0.034415547 -0.0024471 0.0031812543
0003b0 5b b2 1a bc 72 d0 9f 3d 06 2d 4a 3d 89 9f af 3a
       -0.009441937 0.0780343 0.049359344 0.0013398986
0003c0 fc 62 c5 bb 1c 7f b0 3c 6b 4e 5b 3c a8 78 41 3c
       -0.0060237627 0.021544985 0.0133853955 0.011808552
0003d0 05 49 99 3c a6 62 ea bd 74 88 0a 3b 36 80 f2 3c
       0.018711576 -0.11444597 0.0021138461 0.029602151
0003e0 1a df b8 3c d5 78 04 bc 50 4b 69 3d fc 7b 81 bd
       0.02256732 -0.008085449 0.05695659 -0.06322476
0003f0 b5 4c 09 bc 12 9d 97 bd 76 76 bb 3c c6 71 8b bb
       -0.008380105 -0.07403006 0.022883635 -0.004255506

actor.6.bias f4 [29]
000000 68 d4 0b 3d a2 dc 7a bc ab c1 b0 bd 2d 4e e9 bd
       0.034138113 -0.015311392 -0.08630689 -0.11391864
000010 d7 ba d9 3d 83 f2 1d 3d fb 7c 9b bd b6 6c aa bd
       0.1063134 0.038561355 -0.075921975 -0.08321516
000020 1b 6b 09 3d 99 ec 25 3d 6f 30 b9 3d 8b 4f 20 bd
       0.03354941 0.04050884 0.09042441 -0.039138358
000030 e6 45 dd 3c 4d 43 8b bd 08 c6 24 bd 6e cf 4f ba
       0.02701087 -0.06799946 -0.04022792 -0.0007927333
000040 92 19 7d 3c 7c 6a 2e 3d 78 3c fc bc 13 ef 6c 3d
       0.015447991 0.04258202 -0.030790552 0.057845186
000050 81 b3 07 be 88 9e 8e bc 79 e2 1a 3c 60 0e 74 bd
       -0.13252069 -0.017409578 0.009453409 -0.05958402
000060 a4 a4 57 3d 78 e0 85 bc 2c 29 e4 3c f9 82 70 bd
       0.052647248 -0.016342387 0.027851664 -0.058718655
000070 04 67 4c bd
       -0.04990293
