mjswan_demo/g1/policy/balance.onnx (onnx, 865648 bytes, 8 tensors)

actor.0.weight f4 [512, 93]
000000 2d fd 34 3c 5e fb f3 bd 4c a2 cc bd 60 92 e2 3c
       0.01104669 -0.11913179 -0.09991893 0.027657688
000010 8e 92 db 3e a8 49 3d bd 3e cd 26 bd 32 b9 83 3c
       0.4288525 -0.046212822 -0.040723078 0.016079519
000020 cb e3 09 bd ee a9 3e 3e cc b9 29 be 3a af 0e 3e
       -0.033664506 0.1861951 -0.16574782 0.13934031
000030 47 16 08 be 92 05 e2 3d f0 f4 c1 3c e0 79 ae 3d
       -0.13289748 0.11036219 0.023676366 0.085193396
000040 e7 10 85 3d 70 c4 78 bd 41 c2 a4 3d f5 18 d3 bc
       0.064973645 -0.060734212 0.080448635 -0.025768736
000050 d9 cb 28 be de de b6 bd 2b 5b 84 3d 95 23 aa bd
       -0.16484012 -0.08929227 0.064627014 -0.08307568
000060 9e e7 17 3e 6d 7c ec 3c 12 7c d5 3d 24 52 16 be
       0.14834449 0.028867925 0.10424055 -0.14679772
000070 c2 93 3e bd 43 3d 48 3d 81 22 17 3c 4c cc e2 bd
       -0.04652763 0.04888655 0.009224535 -0.11074123
000080 e1 38 20 3e 0e 60 8d bd 1e 55 6c 3d 4f 66 8f bd
       0.15646698 -0.069030866 0.05769836 -0.07001936
000090 1a b4 cb bc 56 ef 4d 3d 39 51 08 3e 71 94 90 3d
       -0.024866153 0.050277077 0.13312234 0.07059563
0000a0 49 cf a3 3c ce c5 57 bd 5c 04 a4 bc fd 60 89 3d
       0.019996302 -0.052678876 -0.02002161 0.06707952
0000b0 b8 d0 0e 3d 38 38 f0 3b 95 b5 e5 3d c7 36 4e 3d
       0.03486702 0.0073309205 0.11216275 0.05034521
0000c0 fd 28 73 3c fd 55 7e 3d fa 37 07 bd 2c 19 f8 3c
       0.014841315 0.062093724 -0.033012368 0.03028544
0000d0 f9 f1 d3 bc d7 64 7d 3d d1 e3 10 3d 0b b8 da 3d
       -0.025872217 0.061863746 0.035373513 0.10679635
0000e0 03 54 c5 bd 8b f1 a7 3c c6 27 b2 bc a5 05 0a bd
       -0.096351646 0.020500919 -0.021747481 -0.03369679
0000f0 cc 02 24 bd 70 bf 1d bd ca a8 9d bd 69 24 08 be
       -0.04004173 -0.038512647 -0.076982096 -0.1329514
000100 b6 cb 96 bd f0 68 e5 bd 5f d8 0f bd 32 4d 00 3e
       -0.073630735 -0.11201656 -0.035118457 0.12529448
000110 bd 69 ba 3c ea f2 04 be 51 ea 31 be 26 e5 2b 3e
       0.022755498 -0.1298329 -0.17374541 0.16786632
000120 a6 af 19 be db 40 8b bd 32 56 a2 bc c0 10 08 3e
       -0.15008411 -0.067994796 -0.019816492 0.1328764
000130 11 c3 00 be e4 64 3b 3d e7 b8 2f bd 18 74 6f be
       -0.12574412 0.045750514 -0.042900946 -0.2338413
000140 36 4f 3b 3e d6 f3 28 3c 6f a6 8f 3d ae 8e 4e 3d
       0.18291935 0.010312041 0.070141666 0.05042904
000150 46 9f 01 3e bc bd ad 3d 9f 26 1b 3d 99 84 72 bd
       0.12658414 0.084834546 0.03787863 -0.059208486
000160 c1 50 f2 3d fe 1c 09 be ee e0 10 bd 45 36 aa bd
       0.11831809 -0.13389966 -0.03537076 -0.08311132
000170 66 55 75 3d ec d7 61 bd be 1c 4e 3d 83 e3 eb 3d
       0.059895895 -0.05513756 0.05032038 0.11518004
000180 37 fe b8 be 6f c3 1a be a5 83 40 3d ec 1c 20 bf
       -0.3613145 -0.15113614 0.047000546 -0.6254413
000190 21 f9 8e 3b 44 75 29 3c a7 89 73 3e 0e 13 52 3e
       0.0043631946 0.0103429 0.23782979 0.20515081
0001a0 9b 03 ae bd 1c 28 df 3d e2 ed 4c be fd 52 97 bd
       -0.084967814 0.10896322 -0.2001262 -0.07388876
0001b0 61 bc a4 bd 3d 5d 08 3e df 40 e0 bb 21 15 b6 3b
       -0.08043743 0.13316818 -0.0068436707 0.005556718
0001c0 9e 6c 8c 3d 67 68 95 3c 4b 46 a1 3b a5 dd 63 bd
       0.068566546 0.01823826 0.0049217097 -0.0556313
0001d0 13 35 b8 3d b4 7a 68 bc 6e f6 91 bc 8b c2 c9 bc
       0.08994498 -0.014189411 -0.017817702 -0.024628898
0001e0 17 df 9a bb 49 8c 22 bd 91 75 b4 3d f0 4a ba bd
       -0.0047263014 -0.039684568 0.088114865 -0.090963244
0001f0 bf 1d b6 3d 43 ee 44 3e 32 99 a0 3d 17 06 66 3e
       0.08892392 0.19231515 0.0784172 0.2246326
000200 7e 9d 26 bc 28 50 f9 bc df 31 66 3d fa 82 1e bd
       -0.010169385 -0.03043373 0.056199905 -0.038699128
000210 c0 74 2d 3d 5a a0 26 3d e1 5c a4 bd 37 38 8e 3c
       0.04234767 0.040680267 -0.08025528 0.01736079
000220 f0 45 92 bd f3 d8 5b 3d b2 a1 ce bc 26 0d e3 bc
       -0.07142246 0.053673696 -0.025223587 -0.02771623
000230 5d 7a 80 3d 1f 6b 63 3d 5e 33 18 3d f8 ae 94 bd
       0.06273339 0.05552208 0.037158363 -0.07259935
000240 ea c0 fd bc 8f f1 0c 3b b1 5a 6a bd 9a 81 cc bc
       -0.030975778 0.0021506285 -0.057215396 -0.024964143
000250 2b a6 5d bc 6d f0 59 bd 97 b5 9c bc 49 9d 70 bb
       -0.013528387 -0.053207804 -0.019129558 -0.0036714843
000260 c1 fc d1 bc 3c 6f c3 3b 42 29 b3 3c 40 37 4a bd
       -0.025633218 0.005964188 0.02187026 -0.049369097
000270 a5 6e 0b bd 45 41 b0 bd d6 6d 0d 3e 9a d4 0c be
       -0.034041066 -0.08606199 0.1381143 -0.13752976
000280 4a 75 1a 3d 0d fe 5b bd ab d3 c0 3d d3 2f c3 3d
       0.03770951 -0.05370908 0.094153725 0.09530606
000290 e2 db e2 bd a7 33 fa 3b 67 f8 cd bd 27 59 91 3d
       -0.110770956 0.007635552 -0.100571446 0.070970826
0002a0 e4 0f fd bb 11 8d 07 3d 78 4d 1b be d6 74 9d bc
       -0.0077228416 0.033093516 -0.1516627 -0.01922075
0002b0 58 46 6d 3e 92 0a 0d 3e f8 6a 36 3e 95 fd 52 3d
       0.23171365 0.13773564 0.17814243 0.051511366
0002c0 33 a9 d6 bc 5b 81 a1 3d 1e 63 f6 3d b2 de 8e 3c
       -0.026203727 0.07886001 0.12030624 0.017440174
0002d0 16 46 4f 3c f7 3d 63 bd 53 5d 82 3d eb 74 0e 3e
       0.012650987 -0.055479016 0.063654564 0.13911788
0002e0 48 0d b6 3c a4 ef 66 3e 0b 12 49 be cd 97 49 bd
       0.02222313 0.22552353 -0.19635789 -0.049217034
0002f0 73 62 47 bd 8c 27 8b be 6f 12 44 3f bb 20 1f 3d
       -0.048677873 -0.2717861 0.7659063 0.038849574
000300 78 75 72 be 4a 57 95 be 1c 11 b6 3d 81 d1 40 bd
       -0.23677623 -0.2916816 0.08889982 -0.0470748
000310 6a 64 85 bd f0 8f 37 3e 3c d7 e3 3d 8d 44 cb 3d
       -0.06513293 0.17926002 0.11125037 0.099251844
000320 fb 92 ba 3d 0a 58 e7 3d 28 63 ad bd 4c 63 ed 3c
       0.091100655 0.11296089 -0.08466178 0.028978013
000330 55 b7 a9 bd f3 ce ee 3d b4 cd 5d be a4 d2 aa 3c
       -0.08286921 0.11660566 -0.21660501 0.020852394
000340 1a c2 15 be 18 15 8d bd 39 93 b0 bd 1a 88 9f 3d
       -0.14624825 -0.06888789 -0.086218305 0.07789631
000350 aa f5 6f 3d a3 20 cc 3d 62 dd 51 3d a2 f9 4a 3e
       0.058583893 0.099671625 0.051236518 0.1982179
000360 ac 06 46 be 76 0f 10 be b8 1a f5 bc b0 b7 a9 bc
       -0.19338483 -0.14068398 -0.029919967 -0.020717472
000370 07 1b 22 3e cc ac 46 bd e7 68 c9 3c 3d dc fd bc
       0.15830623 -0.048504636 0.024586154 -0.030988807
000380 62 cb c7 3c e4 59 6a 3c c3 75 13 3d 77 af 15 3d
       0.024388973 0.014303658 0.03600098 0.03654429
000390 2f 70 7e bd a3 c8 ea 3b 21 f6 64 3d 40 a3 2d ba
       -0.062118705 0.007165031 0.05589879 -0.00066237524
0003a0 a3 1b 5c 3d 96 3a 42 3c af a4 f2 3a 24 6e ef bb
       0.053737294 0.011854788 0.0018512214 -0.007306831
0003b0 c1 97 8e 3a ac 1e 3e bd 4a 33 18 bc 48 c4 62 3d
       0.0010878966 -0.04641597 -0.009289572 0.05536297
0003c0 13 ab 0e 3c 03 85 42 bb 7f b0 4e bd b9 5b 33 bd
       0.008707779 -0.0029681332 -0.05046129 -0.043788645
0003d0 2a 58 fa 3b 30 9a 5e 3c 6f d9 fd 3c ce eb 1b bd
       0.0076399045 0.013586566 0.03098747 -0.038066678
0003e0 5b 9d 66 ba b3 a0 5c bd ba e6 22 be ed 6e b0 3d
       -0.00087972515 -0.053864192 -0.15908328 0.086149074
0003f0 29 75 b1 3d 51 8d f7 bd ae 8a 84 3d c3 e4 ed bd
       0.08664925 -0.12087501 0.064717636 -0.116158985

actor.0.bias f4 [512]
000000 e1 66 d8 bc ae 7e 6f 3d a2 08 ba bc 2e e7 88 bc
       -0.026416244 0.05847042 -0.022709195 -0.016711798
000010 01 90 32 3d 94 67 b7 3d a7 c5 1c be a2 ec 06 be
       0.043594364 0.08955303 -0.15309773 -0.13176206
000020 eb 2b bb 3c bd 02 11 be eb e7 b1 bd 08 2e fd bc
       0.02284809 -0.14161201 -0.08686813 -0.030905738
000030 64 fb 21 bd ee a5 73 bd 57 26 d0 3d 34 91 6d be
       -0.039546385 -0.059484415 0.10163563 -0.23199922
000040 4c c0 ae 3d c5 f8 d1 3c 28 57 85 bd d0 b7 29 be
       0.085327715 0.025631318 -0.06510764 -0.16574025
000050 91 3f 62 3d 9c 12 11 be 2b 50 f5 3d 22 8f f3 bd
       0.055236403 -0.14167255 0.119781815 -0.11892535
000060 ef 28 11 3d fe f9 11 3c 89 56 0d 3d 7a a0 00 bd
       0.035439428 0.0089097 0.034506354 -0.031403042
000070 dd e1 78 3d a2 07 d9 bc f0 24 39 3e a3 7e 27 3d
       0.060762275 -0.026492897 0.18080497 0.040892255
000080 3b 11 94 3d b1 dd a8 3d 31 ef 84 3d e6 e6 6e bd
       0.07229849 0.08245409 0.06490935 -0.05832567
000090 2d 32 89 3d 23 be 40 be 07 ca 29 bd 23 ed ed 3d
       0.066990234 -0.18822531 -0.041452434 0.11617496
0000a0 c6 7f bb bd e2 ed 23 3e bf 07 06 bd e7 0d 8b bd
       -0.0915523 0.16008714 -0.03272223 -0.06789761
0000b0 20 e4 12 be f2 18 b2 bd e9 c6 ca bd eb ac e6 3d
       -0.14344835 -0.08696164 -0.0990122 0.1126345
0000c0 8f 96 8d 3a 9e 5a 4c bd b4 4f 2a 3e 1a 3e 85 3d
       0.0010802316 -0.049891107 0.16631967 0.065059856
0000d0 31 fc f2 bd 46 8f c0 bd 0a 4a ee 3d a7 0e 02 bc
       -0.11864508 -0.09402327 0.116352156 -0.007938064
0000e0 72 88 fb ba b9 ce ba 3d 2e d2 ef bd 1f b2 85 3d
       -0.0019190444 0.091214605 -0.117100105 0.065281145
0000f0 c6 0a 0d 3c ba 22 f5 3d cf 35 46 3e 79 10 cc 3d
       0.008608526 0.11969514 0.19356464 0.099640794
000100 6a a1 2b bc 00 36 0b 3e 3c 04 3a bd d7 96 a5 bd
       -0.010475496 0.13594818 -0.045414194 -0.08085411
000110 4e a6 46 bd 30 e0 65 bd 2d c8 7c bd 4a fb ae 3d
       -0.048498444 -0.056122005 -0.06171434 0.08544023
000120 44 a7 f2 3d 3e 2f 09 3e 1e d6 ce bc 59 22 2c 3e
       0.1184831 0.13396928 -0.025248583 0.16809978
000130 10 de 0d be 68 0c 9f bc 1b 59 d0 3d 67 36 88 3c
       -0.13854241 -0.019415095 0.101732455 0.016627504
000140 0b 86 02 3e 39 6d 5e bd be 5c c0 3d 9b ae 03 be
       0.12746446 -0.05430338 0.09392689 -0.12859575
000150 84 c8 f0 bd ce 51 8d 3d 59 1a ad 3d 0f b9 6d bd
       -0.11756995 0.06900369 0.08452291 -0.058037814
000160 6c 0d 88 bc db 1c 92 bd 1c fb 42 3e ad 7d 14 bd
       -0.016607963 -0.0713441 0.19041103 -0.036252666
000170 6b f1 09 be ce c0 aa 3b f8 45 0d bd 91 7a f3 3d
       -0.13471 0.0052109724 -0.034490556 0.11888612
000180 74 4b 1e 3e 47 5f 14 be 3f a9 5a 3d f1 8b a8 3d
       0.1545847 -0.1448947 0.053384062 0.08229817
000190 af 75 0a 3c f0 03 dc 3c a1 b4 fc bc db 5c be 3d
       0.0084509095 0.026857346 -0.03084785 0.092950545
0001a0 b3 28 a9 3d 57 f3 07 be af 60 0c 3d 7a 39 62 bc
       0.08259716 -0.1327642 0.034271892 -0.013807649
0001b0 45 f9 21 bc 95 47 44 3d b8 02 b4 3d 1b 0f 67 bd
       -0.009886091 0.04791983 0.08789581 -0.05641089
0001c0 58 13 03 be c3 47 11 be 06 94 88 3d e7 de d8 3d
       -0.12800348 -0.14187531 0.06668858 0.1058939
0001d0 44 76 c0 bc a6 dd 89 3d 67 be 30 3d 9b 1c 73 bd
       -0.023493893 0.06731729 0.04315033 -0.059353452
0001e0 ae 94 8d bd 72 0d 8a 3d a5 9c b8 bb 29 f0 ff bd
       -0.06913124 0.06740846 -0.005633908 -0.12496979
0001f0 db 1b 09 3e 63 97 aa 3c f3 05 12 3e a6 c1 88 bd
       0.13389532 0.02082414 0.14260082 -0.066775605
000200 8e 66 ce 3c 33 22 89 bd 2e 08 d4 3d 0a 64 3a bd
       0.025195386 -0.06695976 0.10353123 -0.04550556
000210 10 8f cf 3c 63 3c 15 be 66 13 8a bd d9 3e 84 bd
       0.025336772 -0.14573817 -0.06741981 -0.064573
000220 ca f6 7a bd da cf 19 be 67 e6 68 3d ca 0b 4e bd
       -0.061270513 -0.15020695 0.056860354 -0.05030421
000230 46 b0 1e bd 90 91 07 3e 3b 56 15 3d d3 b5 a3 3d
       -0.038742326 0.13239121 0.03645919 0.079936646
000240 db fe 07 3e d8 af 4e 3d d0 26 ec bd 46 a1 9b bd
       0.13280813 0.050460666 -0.115308404 -0.0759912
000250 37 a6 dd bd 31 d0 4d bd f7 5d 15 3c 32 06 07 3d
       -0.108227186 -0.050247375 0.009116641 0.032964893
000260 1d 61 c1 bd be 4d f6 3d 6e 93 43 3b 4d 9a be 3d
       -0.09442351 0.12026547 0.0029842514 0.09306774
000270 0a 05 b6 3d 68 89 af 3d 68 cd b6 3d dc 7b 82 bc
       0.0888768 0.0857113 0.08925897 -0.015928201
000280 ed 13 91 3c ed b3 e4 bd 96 1d 17 bd 96 e0 c2 bd
       0.017709697 -0.111671306 -0.03689345 -0.095154926
000290 9d 0f 31 3e 8d fe 1c be ed c5 95 bc 1b 78 16 be
       0.17291112 -0.15331478 -0.018282855 -0.14694254
0002a0 57 8a ba 3c 47 ad f7 bd 6f de 50 bd 00 2e 7d bd
       0.022771044 -0.12093597 -0.05099338 -0.061811447
0002b0 94 69 e5 3d f9 fc 64 bd e5 e9 ac 3d c9 e1 39 bd
       0.11201778 -0.055905316 0.08443049 -0.04538134
0002c0 60 a4 ba bc f0 aa 97 3c 3c 23 30 be eb a0 37 3d
       -0.022783458 0.018514127 -0.17200941 0.044831198
0002d0 2c 4b 85 3c 86 ec e1 3c 81 56 0e 3e d1 7e 0b 3c
       0.016271196 0.027578603 0.13900186 0.008514122
0002e0 c6 28 4b ba c2 48 65 3e 88 22 d5 bd 7c 31 f8 3d
       -0.0007749911 0.22391036 -0.10406977 0.121188134
0002f0 32 21 5c bd 6f f9 97 3d fd 78 55 3e 1f 39 97 bd
       -0.053742595 0.074206226 0.20846935 -0.07383942
000300 b0 13 c1 bd e5 c1 8d 3d b6 54 73 3d ec f4 b0 3d
       -0.09427583 0.06921748 0.05940696 0.08640465
000310 7c 9b 5d 3e 66 1f e4 3c 66 0e ba 3d 74 3a cc 3d
       0.21641344 0.027847003 0.090847775 0.099720865
000320 78 7c 5d 3d ef c6 40 be d0 e2 f6 3d be b1 a5 bd
       0.05407378 -0.18825887 0.1205498 -0.08090542
000330 44 4e cd bd 0a 82 a8 bd be 01 4e 3d 66 d4 b2 bd
       -0.100246936 -0.08227928 0.05029463 -0.08731918
000340 de 2d cf 3d 8b 18 c7 3d 9e 2c 48 bc ab 77 bd 3c
       0.1011617 0.09721478 -0.012217669 0.023128351
000350 f5 ba d5 3d 2b 37 2c 3e d6 79 df 3d 6b 00 0b bc
       0.1043605 0.1681792 0.1091191 -0.008483986
000360 3f 2c 38 3d c3 5b 54 3d 65 ad b4 bc 45 5b 26 bc
       0.04496407 0.051845323 -0.022055337 -0.010153596
000370 94 fc 19 be e1 76 9e bc 41 d1 9f 3d 62 7c 83 bd
       -0.15037757 -0.019343795 0.07803584 -0.064202085
000380 2b a3 78 bd 1c be ad bc 24 f8 07 3e 53 b4 15 3e
       -0.060702484 -0.021208815 0.13278252 0.1461957
000390 d9 e8 8f ba d5 c1 10 3d f2 49 1a 3d a3 62 08 bd
       -0.0010979428 0.035341103 0.037668176 -0.033297192
0003a0 06 48 1d bd 51 fd 25 3d ea d1 f1 3b 72 c2 18 3e
       -0.038398765 0.040524784 0.00737976 0.14917925
0003b0 cd ee 2f be f6 f4 64 3c a5 e8 11 be 81 06 fa 3d
       -0.17180939 0.013974419 -0.14248903 0.12208272
0003c0 b7 f6 52 3d 5e 02 90 3b ef 4a cd 3d 1b a9 8a bd
       0.051504817 0.0043948134 0.10024058 -0.067705356
0003d0 c7 fa 45 bc e4 c3 aa 3c f4 45 13 be 97 04 9e 3d
       -0.012083716 0.020845361 -0.14382154 0.07715719
0003e0 49 38 28 bc 98 94 c8 3d 13 53 b0 bb 91 72 1e be
       -0.010267326 0.09793967 -0.005380997 -0.15473391
0003f0 5e 9b c3 3d f2 6d 38 bd d8 70 fd 3d d0 0c 96 bd
       0.09551118 -0.045026727 0.12375039 -0.073266625

actor.2.weight f4 [256, 512]
000000 63 c7 1d 3d 9a 56 93 bc 01 e0 33 bd 70 d8 9d 3c
       0.038520228 -0.01798563 -0.0439148 0.019268245
000010 f8 9d 2b ba 82 f8 bd 3c 66 d8 55 bd e7 d0 ba 3c
       -0.00065466715 0.023189787 -0.052208327 0.02280469
000020 28 0e 06 3d 65 78 9f bd 85 7c cb 3a cb e4 8f bd
       0.032728344 -0.07786635 0.0015524781 -0.07026061
000030 56 e2 82 3c d9 65 ef bd ee 9f 69 bc bc 70 58 bd
       0.015977066 -0.11689348 -0.014259322 -0.052841887
000040 18 a1 a3 ba 5f c5 83 bd d6 04 77 3d 7b 04 9f 3d
       -0.0012483923 -0.0643413 0.060307346 0.077645265
000050 82 a0 c5 bc 14 f9 d3 3c b5 c1 a7 39 3f 88 8e bb
       -0.024124388 0.025875606 0.00031997045 -0.004349738
000060 1f 41 58 3d 62 d5 d4 bd d1 2a 9c 3c 67 d2 3b bd
       0.05279648 -0.10392262 0.019063385 -0.045854952
000070 5e 99 0e bd 57 19 cc bc ba 0d 92 3c 05 12 43 bd
       -0.03481423 -0.024914427 0.017828811 -0.047624607
000080 d7 51 d2 bc ac 2f 5a bb 94 c8 78 3b 43 7b 1d 3d
       -0.02567379 -0.0033292575 0.003796135 0.03844763
000090 1a 45 9a 3d e7 4a 53 3d c1 2d 77 bd 39 56 20 ba
       0.07532711 0.051585104 -0.06034637 -0.0006116364
0000a0 c9 a9 0f bc d6 67 75 3c 33 d2 82 bd f5 3d f3 ba
       -0.008768507 0.01497837 -0.063877486 -0.0018557893
0000b0 9f f2 42 bc 82 a0 57 3b d5 0a 40 bc 36 c8 53 bc
       -0.011898666 0.0032902067 -0.011721333 -0.012926152
0000c0 8e 04 b7 3d 03 74 91 bb 9c 21 c8 bd 99 1a bf 3d
       0.089364156 -0.0044388785 -0.097720355 0.09331245
0000d0 39 68 c7 3d 51 53 85 bd b7 06 10 be 97 d4 3b bd
       0.09736676 -0.06510032 -0.14065062 -0.04585704
0000e0 db bd e5 3c 03 48 6b 3d 6f c6 f0 bd 08 af e9 3c
       0.028044632 0.057441723 -0.11756598 0.028525844
0000f0 cc 92 ca bc 19 67 e1 3d e7 3b a8 3c af 24 99 bc
       -0.024728201 0.110059924 0.020536376 -0.01869425
000100 8f 5b ec bb 80 3d 61 bd c9 f9 51 bd e5 5e 81 bc
       -0.007213063 -0.05499029 -0.051263604 -0.01579232
000110 e8 0f 95 3b 55 95 dc bd 07 9d 16 bb 3d c2 5d bd
       0.0045490153 -0.1077067 -0.002298178 -0.05414032
000120 20 07 ae bd 43 96 93 bd 16 ad c2 3c 01 e4 8c 3b
       -0.08497453 -0.072063945 0.023764174 0.004299641
000130 e4 e4 95 bd b7 01 b4 bd bd 94 9d bd c3 3b bb 3b
       -0.07319048 -0.087893896 -0.07694385 0.0057139113
000140 70 b5 44 bb 58 f4 4b bd 1f f7 c8 bd 04 78 16 3d
       -0.0030015372 -0.04979357 -0.098127596 0.03673555
000150 82 a6 c7 3c 50 5c 51 3d e8 d2 d6 bb bc 2e 1a bc
       0.02437139 0.051113427 -0.0065559037 -0.009410556
000160 fd c6 80 3c 2c 21 90 bc 50 ca 36 3d de cc a3 3a
       0.015719885 -0.017593943 0.044626534 0.0012496968
000170 66 44 1f 3c 4e ff dd bc bd 4a bf bc ac ae 9a bb
       0.009720897 -0.027099278 -0.023351068 -0.0047205295
000180 45 9f 94 bd 53 40 2a bd d9 64 9a 3d 94 33 a0 3d
       -0.07256941 -0.04156525 0.075387664 0.07822338
000190 83 0c c4 bd 90 d4 8a 3d 76 14 46 bc 5a 36 80 bd
       -0.09572699 0.06778824 -0.012089839 -0.06260367
0001a0 4e 28 91 bd 8f d3 b7 bd e1 59 84 bc bc 40 53 3b
       -0.07087766 -0.089758985 -0.016156139 0.003223463
0001b0 2b 7b 86 3d dd 08 f9 bc b9 a6 f3 bd 0b 6b fc 3d
       0.06566461 -0.030399734 -0.11897034 0.12325104
0001c0 03 2b 75 bd 8c 6c 85 3c 74 a5 23 3d bc 01 2d bc
       -0.059855472 0.01628711 0.03995271 -0.010559496
0001d0 2b 63 b9 3c da 10 ed bc a1 7a 60 3c b1 54 82 bc
       0.022630295 -0.0289387 0.013701112 -0.015909525
0001e0 75 1c e7 bc 27 d4 f8 3b 11 ac 73 3c a4 43 f6 3c
       -0.028211812 0.00759365 0.014872567 0.03006155
0001f0 8d 5e ce bc 3c aa ef 3c 1a 9b 65 bc d7 5b c2 bd
       -0.02519157 0.029255979 -0.01401403 -0.09490173
000200 d9 a0 46 3d ca 8a 0d bd 35 13 b8 3d 0f 88 2f bd
       0.04849324 -0.034556188 0.089880385 -0.042854365
000210 01 87 02 3a 0d a0 c9 3c 36 e1 87 3d 05 85 c5 bd
       0.00049792236 0.024612451 0.066347525 -0.09644512
000220 e6 2c 00 bd 6b 15 a6 3b 0f 71 81 bd 06 46 a7 3d
       -0.03129282 0.005068471 -0.06320392 0.08167653
000230 55 4c 03 3c 6d d7 e5 bc f3 9d c2 3c 2a 90 d1 3d
       0.008013804 -0.028056825 0.023756957 0.10232575
000240 cc d5 ae bd e3 a4 92 3c 79 f3 2c 3c 3f f0 e5 3d
       -0.08536872 0.01790089 0.010556095 0.11227464
000250 c4 31 e6 bc 0f fa 10 be 89 dd 20 be 8f 1a 8d bd
       -0.028099902 -0.1415789 -0.15709509 -0.06889831
000260 86 d9 35 bd e2 8e 3e 3c 23 e4 2f 3c 9a 32 f9 bc
       -0.0443969 0.011630746 0.010735544 -0.030419637
000270 25 0b c7 3d f1 af 15 3c ed d2 89 bd c4 fc 86 3d
       0.097189225 0.009136186 -0.06729684 0.0659118
000280 40 b4 4e 3d 43 95 6c 3c fd a0 19 3e f4 4d b8 bc
       0.05046487 0.014439884 0.15002818 -0.022498108
000290 0d 1b bf bb a9 b9 8e 3d 00 17 b6 3d 3f e2 c4 bc
       -0.005832082 0.069690056 0.08891106 -0.024033664
0002a0 d8 0e 98 bc d3 eb ac 3d 67 b2 08 be 07 39 8d 3c
       -0.018561766 0.084434174 -0.13349305 0.017239107
0002b0 90 5f b2 bc 0f 50 48 3d 5c e4 1b be f7 e9 f8 bc
       -0.021774083 0.048904475 -0.15223831 -0.030385
0002c0 79 90 71 bc 0a 3a 7f bd a5 37 8b 3c 79 14 08 bd
       -0.014743918 -0.06231121 0.016994307 -0.03322265
0002d0 04 7a 43 3b cb 3e 4e bd 65 18 3a bd 84 8a c7 bc
       0.0029827366 -0.050352853 -0.04543342 -0.024358042
0002e0 30 f8 68 3c f8 9a 9b bd cc 8f 2f bd d9 87 b9 3a
       0.014219329 -0.07597917 -0.042861745 0.0014154866
0002f0 38 2a 9f 3d f6 04 ba 3d a8 b6 bf bd 17 2c 37 3d
       0.077717245 0.090829775 -0.09361011 0.04471978
000300 d7 d3 5d 3d 91 65 19 b9 05 cf 2b 3d bf 47 e1 bd
       0.054157104 -0.00014629053 0.041945476 -0.110000126
000310 86 09 a9 3b 44 8e c7 bb e9 e6 88 3d 79 c9 72 bc
       0.005158606 -0.0060899574 0.066846676 -0.014818543
000320 1f e4 d9 bc a7 12 94 3c 72 75 14 bd 82 80 ae bd
       -0.026598034 0.0180753 -0.036244817 -0.08520605
000330 b5 90 b7 bd 1a 10 47 3d 96 dd d2 3d ed 49 e2 bc
       -0.089631476 0.04859934 0.102961704 -0.027623141
000340 67 c1 c2 3d 5d dc f6 bd 4b bb 99 ba a8 8e ce 3d
       0.09509545 -0.1205375 -0.0011728791 0.10085803
000350 f1 5c 4a bd 22 e0 9c bd 48 66 97 bd 14 bb 8f bd
       -0.049405042 -0.076599374 -0.073925555 -0.07018104
000360 ec 05 ee 3b b5 70 be bb 36 ee f7 bc f6 bb 80 bd
       0.0072638895 -0.0058117756 -0.030264955 -0.06285851
000370 d4 27 10 bd 27 77 10 3d ff f9 94 3c db 77 81 3b
       -0.035194233 0.035269883 0.018185614 0.0039510555
000380 ae 82 fa 3c 41 4e 90 bc 91 13 15 bd 5f ca 93 bd
       0.030579891 -0.01761544 -0.036395613 -0.072163336
000390 4f 3c c8 bc eb dd a1 bd cd 01 66 bc 1a 55 6f 3d
       -0.02444282 -0.079036556 -0.014038515 0.05843077
0003a0 03 92 ae bd b7 11 49 bc 8a 8b 1b bd 61 8e 81 3d
       -0.08523943 -0.01227229 -0.03797487 0.06325985
0003b0 24 56 94 bc 6b 93 a0 3d 7f 2b 02 bc c7 b2 1e bd
       -0.018107481 0.07840618 -0.007944941 -0.038744714
0003c0 bb 44 75 bd 55 46 17 3d ca 93 58 bd a8 91 d4 bc
       -0.05988 0.03693231 -0.052875318 -0.02594836
0003d0 09 c1 a3 bc 05 ad 3a bc 35 45 c2 3c 16 f7 11 be
       -0.019989507 -0.01139379 0.023714641 -0.14254412
0003e0 2a 45 a0 bc f9 93 7f bd 5a 0a cd bd 5c 91 23 3d
       -0.01956423 -0.062396977 -0.1001174 0.039933547
0003f0 6c c2 10 bd 5f c7 fa bd b1 50 7d bd d2 16 9e bc
       -0.035341665 -0.12245058 -0.06184453 -0.019297991

actor.2.bias f4 [256]
000000 71 e4 2c bb e5 04 da bd 98 24 db bd 14 f3 a9 bc
       -0.002638128 -0.10645465 -0.10700339 -0.020745791
000010 93 c8 e9 bb 97 41 a6 bb 9e bb 81 bd 2e 76 81 ba
       -0.007134506 -0.005073737 -0.06334613 -0.0009877139
000020 60 5d e5 3a ac ea 8d 3d 23 80 36 bd 45 c2 88 bd
       0.0017499141 0.06929526 -0.044555794 -0.06677679
000030 2f 93 6f bc f2 a2 30 bd 92 b5 22 be 29 a8 30 bc
       -0.014622494 -0.043124147 -0.15889576 -0.01078228
000040 07 83 1c 3b d9 e1 d2 3c 1b 00 85 3d b8 1c 4c bc
       0.002388181 0.025742458 0.06494161 -0.012458019
000050 bf 2c 5c bc b7 f0 4b 3d e9 8b f0 bd ee f3 2d bd
       -0.013438403 0.04979011 -0.11745436 -0.042468958
000060 fd f3 2c bd 42 4c be 3c 69 f2 96 bc a6 c3 5e bd
       -0.042224873 0.023229722 -0.018426137 -0.054385804
000070 c6 c5 ba bd 62 09 50 bd 4c 98 31 3c 03 9e d0 bc
       -0.091197535 -0.0507902 0.010839533 -0.02546597
000080 d8 2c 3b bd a2 7e 8a bd 1a f4 e4 3c 9d 61 c0 bb
       -0.045697063 -0.067624345 0.027948428 -0.0058710114
000090 bc 01 0a be e8 a1 f7 3c bc 26 2d bd 57 a4 c8 bc
       -0.13477224 0.03022857 -0.042273268 -0.024492426
0000a0 d5 29 76 bd 8e a4 ef bc 4e 18 82 39 a7 c6 28 bd
       -0.060098488 -0.02925327 0.0002481364 -0.041205075
0000b0 7b bb 7d bd 51 d6 3c 3d a2 31 84 bc 7b bd ed bc
       -0.061946373 0.046102826 -0.016136948 -0.029021015
0000c0 9e 32 49 3b 10 b5 f8 3c b3 e6 10 3d 18 3b bd bd
       0.0030700336 0.030359775 0.035376262 -0.09239787
0000d0 7e 14 fe 3b 58 ca 3d 3d a4 c0 c2 3c 38 a7 97 3c
       0.0077539077 0.04633555 0.023773499 0.018512353
0000e0 46 69 ca 3d 73 c7 bb bc 91 40 3f bd f1 db 87 bd
       0.098833606 -0.022922253 -0.046692435 -0.06633747
0000f0 5e f5 6c bd 7c e8 9d 3d 06 95 63 3c be 9a ef bc
       -0.057851188 0.077103585 0.01389051 -0.029248592
000100 9a 8b 25 3d 5a 9d 5c bc 04 72 8a bc d3 37 d9 bc
       0.040416338 -0.01346525 -0.01690007 -0.026515877
000110 62 f9 b6 bd a2 a4 30 bc 23 9c 3d 3d f6 2e 18 be
       -0.08934285 -0.010781439 0.04629148 -0.14861664
000120 8c 36 87 bd 71 c1 5d bd 80 87 06 ba b9 39 82 bc
       -0.06602201 -0.05413956 -0.00051318854 -0.015896665
000130 79 45 cd 3b 65 93 e3 bc a9 c5 b2 3d 72 71 da bc
       0.0062643853 -0.027780244 0.08729107 -0.026665423
000140 85 e4 ab bc 20 7e 03 3d 03 f2 bb bc 45 65 07 3c
       -0.02098299 0.032102704 -0.022942549 0.008263891
000150 0a 07 92 bc 9a cf 24 bc e1 73 d9 3b 65 ce 10 3b
       -0.017825622 -0.010059262 0.0066361283 0.0022095677
000160 dc ce ae bd d3 3d 78 bd 25 1c 5c 3c 82 53 49 bd
       -0.08535549 -0.060605835 0.013434445 -0.049151905
000170 4c dc c9 bc e3 5e a1 bc 26 7a 03 bd c4 1f 5c 3c
       -0.024641179 -0.019698566 -0.03209891 0.013435308
000180 fe 2d ee bd b4 13 86 bc 89 28 3a bd 83 02 b7 bc
       -0.11629866 -0.016366817 -0.045448814 -0.022340065
000190 dd b1 15 3c b8 b6 ba bd bc 56 a1 bd bf 07 14 be
       0.009136644 -0.09116882 -0.078778714 -0.1445608
0001a0 25 73 83 3d bf 79 00 be 00 ef 5f bb 59 37 56 bd
       0.064184465 -0.12546442 -0.0034169555 -0.052298877
0001b0 42 02 83 bd 0d ef 65 3c 63 a8 20 bd e3 5d c1 bd
       -0.06396915 0.014034045 -0.039223086 -0.094417356
0001c0 b1 64 84 3d ea 03 2a bb 46 c9 4d bd 59 65 31 3d
       0.06464518 -0.0025942274 -0.050240777 0.043309543
0001d0 ec c1 a9 bc bc 80 5b bd 6a c1 82 3d ac 21 07 bd
       -0.020722352 -0.053589568 0.06384547 -0.032991096
0001e0 ac 58 52 3d b2 aa 58 3d 32 a8 23 bd cc b1 27 bd
       0.051354095 0.052897163 -0.039955325 -0.040941045
0001f0 25 a6 32 bd 46 7a a7 3c 55 e9 d0 bd 30 d5 f4 bd
       -0.04361548 0.020444047 -0.102007546 -0.11954725
000200 a1 e1 19 3d 80 17 13 bd 2e 8d 68 bd 6a c9 75 bd
       0.037568692 -0.035911083 -0.056775264 -0.060006537
000210 44 27 43 bd a7 46 0b bd c8 63 3a bd 2e 49 71 bc
       -0.04764487 -0.034002926 -0.045505315 -0.01472692
000220 f9 7a 6f 3d 53 b5 b6 bd 05 e4 e3 3b 9e ef 05 be
       0.058466885 -0.089213036 0.0069546723 -0.13079688
000230 55 f0 80 bc 2f e8 b2 3c 91 c0 82 bc 13 af b6 3d
       -0.0157396 0.02183923 -0.015960963 0.089201115
000240 1e 57 69 bd d7 3c 0c bd c2 b5 56 bd 70 23 af bd
       -0.056967847 -0.03423771 -0.05241943 -0.08551681
000250 8f e1 e2 3b c8 4f 03 3d 52 4d 0b be 51 a1 e2 3c
       0.0069238613 0.032058507 -0.13603714 0.027664812
000260 56 66 fa bc 26 34 28 bd 08 94 83 3d b2 c3 2a bc
       -0.030566376 -0.041065358 0.06424719 -0.010422634
000270 50 5b ea bd 96 81 64 bd 0c bf e6 bd fd a6 19 be
       -0.11443198 -0.055787645 -0.11266908 -0.15005107
000280 5d 68 8d bd ab 7c c8 3c cc bb 8c bd 68 72 a1 bd
       -0.06904671 0.024473509 -0.06871757 -0.078831494
000290 b6 c5 b9 bd ed 42 02 3d 8b 4b 6a bc 5f c6 f0 bd
       -0.090709135 0.031802107 -0.014300237 -0.11756586
0002a0 c3 e0 d0 bd a3 b5 fa bc 09 7a e2 3c a5 6a 74 bd
       -0.1019912 -0.03060419 0.027646082 -0.059672017
0002b0 af 57 5b bd a4 4d a4 bc fb 8e 3c 3d 8e ac e4 bb
       -0.05355042 -0.020056553 0.046034794 -0.006978578
0002c0 70 77 04 bd 20 6a 79 bb 0a 8d 80 bd 77 cd 0b bd
       -0.032340467 -0.003805764 -0.06276901 -0.034131493
0002d0 e6 10 d1 bd e1 65 be bd b8 83 0d bd de 14 00 3c
       -0.10208301 -0.092967756 -0.034549445 0.007817475
0002e0 09 b9 26 be 56 c8 e7 bc 68 6b 8b 3d 21 4f 9b bd
       -0.16281523 -0.02829377 0.068075955 -0.07583452
0002f0 e7 42 f4 bd 67 40 00 3d b2 48 ac bb e3 61 e2 bd
       -0.11926823 0.03131142 -0.0052576894 -0.11053827
000300 8a 6e 5f bd 32 81 09 bd 72 09 95 3d 3a 42 cc bd
       -0.054548778 -0.033570476 0.07277192 -0.09973569
000310 4c 85 17 bd be e4 1e bd bf 00 10 3d c7 c4 8c 3d
       -0.036992356 -0.038792364 0.03515696 0.0687347
000320 40 80 e9 bc a1 3d 67 bd ad 15 bf bd 24 e2 dc bd
       -0.028503537 -0.05645526 -0.09330306 -0.107853204
000330 ac a1 98 3c 3c c8 a0 3c fc 82 b1 3b f0 ee 97 3d
       0.018631779 0.01962673 0.005417226 0.074186206
000340 13 dc cd bc 65 77 f7 3d 02 0a 97 bd 9c bc f9 bb
       -0.025129354 0.120833196 -0.07374956 -0.007621361
000350 34 09 9a 3c d6 8b 54 3d 33 f3 c1 bd b0 d7 00 bd
       0.018803217 0.05189117 -0.09470215 -0.031455696
000360 59 fc b1 bd 93 b1 3f 3d 25 b5 2f 3c cc 91 f5 bd
       -0.086907096 0.046800207 0.010724341 -0.11990699
000370 89 e6 70 b9 82 e1 15 be bf a3 4c 3d 17 3e 28 3d
       -0.00022974065 -0.14636806 0.049960848 0.04107484
000380 5d 23 69 bd 83 3d aa bc 0f 77 04 be 06 87 90 3d
       -0.05691849 -0.020781284 -0.12936042 0.07057004
000390 39 92 b0 bc 87 c4 39 bd ab 09 ea bc 85 ca 89 b9
       -0.0215541 -0.04535344 -0.028569063 -0.00026281565
0003a0 b6 91 0f 3d 5c bf 08 3d af f7 eb 3c 2d e2 4c be
       0.03505107 0.03338562 0.028804628 -0.20008154
0003b0 34 5e eb bc 8f 09 ed bc 61 db 6c bd 60 f0 7a 3c
       -0.028731443 -0.028935222 -0.057826404 0.015316099
0003c0 aa 03 8c 3c 28 87 b1 bb 7e a9 09 3b 68 5c 88 3d
       0.01709159 -0.005417723 0.0021005566 0.0665825
0003d0 8d e6 8d 3b c1 98 8e bd 4f ae 07 3c b6 76 a8 bd
       0.0043304623 -0.06962729 0.0082813045 -0.08225767
0003e0 36 55 b6 bd 52 c2 4c 3c af 89 18 bd c5 f3 60 3c
       -0.089029714 0.012497501 -0.03724068 0.013729994
0003f0 36 7b b9 bd ec 0c 77 3c 49 be 84 3d 19 e0 b6 ba
       -0.09056704 0.015078764 0.064816065 -0.0013952284

actor.4.weight f4 [128, 256]
000000 a4 ca 19 3c d6 f7 2f be 3a 78 84 3d bb b3 e5 3b
       0.009386692 -0.17184386 0.06468244 0.007009951
000010 58 3c 5e bd 40 79 9c 3d b1 94 39 3d b5 e7 45 bc
       -0.054256767 0.07640314 0.04530782 -0.012079169
000020 b7 32 5c bd 27 73 4f 3c b2 b2 5b 3d f5 c5 9b bb
       -0.053759303 0.012661732 0.053637214 -0.004753823
000030 1e 34 aa bc 79 26 a9 3c 91 c0 6f 3d 38 12 8f 3c
       -0.020776805 0.020648228 0.058533255 0.017464742
000040 0b 30 d0 bc be c4 59 bd 76 d1 0b 3d 02 db 46 bd
       -0.025413534 -0.053166144 0.034135304 -0.048548706
000050 e2 e9 1f bd 13 6d 19 bd 72 b1 85 bc a8 04 4e 3d
       -0.039041407 -0.037457537 -0.016319964 0.05029741
000060 0e 1d 2f 3d 52 90 bd 3c 2c d8 4a 3d 7f cb db 3d
       0.042752318 0.023140106 0.049522564 0.10732173
000070 d4 86 c3 bb f9 41 17 3d 8c 51 d7 3d f5 7f a8 3d
       -0.0059670005 0.03692815 0.10513601 0.08227531
000080 8a b8 3e bd 53 5a c8 bb 7c 70 94 3c 22 2b c0 bd
       -0.04656271 -0.006114283 0.018120043 -0.09383227
000090 48 99 13 bc 03 49 50 3d 15 07 c2 3c b9 80 81 bd
       -0.009008713 0.05085088 0.023685018 -0.0632338
0000a0 77 04 03 be fe 5c 80 bd ec a1 b6 bd f9 52 ad 3d
       -0.12794672 -0.06267737 -0.08917603 0.084630914
0000b0 4f fd 5d 3d 1b 7d f0 bb a8 a1 08 3d bc 68 2e bd
       0.054196652 -0.0073391325 0.033357292 -0.04258035
0000c0 fe 3a c2 bd 31 ad 45 bc 13 66 ea 3b e1 63 a7 3c
       -0.09483908 -0.012065218 0.0071532815 0.020433368
0000d0 24 2f a5 3d 03 79 3e bd bf c4 0a be c1 56 7d bc
       0.08065632 -0.046502125 -0.13551615 -0.015462578
0000e0 ba a8 0f bc 82 88 87 3c 06 ef 20 bc 17 47 bb bb
       -0.008768255 0.016544584 -0.009822613 -0.0057152617
0000f0 10 85 77 3c 85 13 63 3c 71 9e 90 3c c1 76 db 3b
       0.015107408 0.013859634 0.017653676 0.006697506
000100 e0 95 31 3e a8 0b d8 3d 38 9b c1 bd 02 ad e8 3c
       0.17342329 0.10549098 -0.09453434 0.028402809
000110 c5 51 8e 3c ba 3d 32 3d cf 4c 8d bd ea a7 3e 3d
       0.017372975 0.0435159 -0.06899416 0.046546854
000120 f1 57 7b 3d b2 b2 16 bd be 20 57 3c 2e 4c 56 3d
       0.061363164 -0.03679151 0.013130365 0.052318744
000130 3f 7f 79 3d 82 fd eb 3c e2 23 9a 3d e6 31 25 bd
       0.060912367 0.028807405 0.07526375 -0.04033079
000140 40 54 6d 3d 31 72 b9 3c 1e 55 15 3c 02 cf 20 bd
       0.057941675 0.022637459 0.009114532 -0.039259918
000150 21 03 93 3d ac bf 24 bd bc 9f 23 3d 67 ce 80 bc
       0.07178331 -0.040221855 0.039947256 -0.01572342
000160 b6 8e cd bb ff bf c0 bc be 5f 9f 3d c0 fd 39 bd
       -0.006273116 -0.02352905 0.07781933 -0.04540801
000170 23 ab de bc 3a b1 1e 3d 12 03 3d bc 5e c9 11 bc
       -0.027181214 0.038743235 -0.011536377 -0.008898107
000180 08 da 8d 3d f0 01 f0 3c 47 46 a6 3d 73 c4 02 bd
       0.06926352 0.029297799 0.08118873 -0.03192563
000190 ea d8 94 3d 8f 71 42 3d 22 ea 91 bd 0c 53 c7 3d
       0.072679356 0.04747158 -0.071247354 0.09732637
0001a0 27 b4 91 bc 87 69 54 bd 52 33 bb 3d df 87 4c 3c
       -0.017786099 -0.05185845 0.09140648 0.012483566
0001b0 7a dc bb bb d5 54 46 bd e8 5d 4e 3c 77 08 77 bc
       -0.00573307 -0.048420746 0.012595631 -0.015077702
0001c0 81 62 af bd a2 40 0b bd f1 51 58 bc 9d 64 ac 3d
       -0.0856371 -0.033997186 -0.01320313 0.08417628
0001d0 14 ed 5f 3d 62 33 5a bc 1a 40 93 bd d2 b4 20 bd
       0.054669455 -0.013317915 -0.07189961 -0.039234944
0001e0 dc 8f 93 bb dc 18 9d 3c a6 4e 63 3d a0 57 da 3c
       -0.0045032334 0.019176893 0.055494927 0.026653111
0001f0 c8 8b 3a 3d ee 2e 7d bd 95 c7 11 3d 6e b2 be 3d
       0.045543462 -0.061812334 0.035590727 0.093113765
000200 0a b0 0a bd 43 12 04 be 37 f9 c7 3d 9b 7e 97 bc
       -0.03385929 -0.12897591 0.09764331 -0.018492987
000210 27 48 85 bd bb 7b bc bd 74 9a d0 bd 47 c7 74 3c
       -0.065079026 -0.09203287 -0.101857096 0.01494009
000220 3f c8 fb b9 4d bf 7b bb 00 c4 86 bc 72 08 e1 bc
       -0.00048023646 -0.0038413585 -0.016450882 -0.027469847
000230 f1 52 66 bc d3 3a ce 3c 64 8c 14 bd 4e 79 23 bd
       -0.014057861 0.025174534 -0.0362667 -0.039910607
000240 d8 5b 5e 3b a6 02 72 bd 4c 22 8c 3d ef 79 fc bb
       0.0033929255 -0.059084557 0.06842479 -0.0077049653
000250 80 1d 84 bd 93 aa 4d 3d 7f 1f cf bb ba 9c cd 3d
       -0.06450939 0.0502115 -0.0063208933 0.10039659
000260 f7 d2 85 bd 07 c3 f1 bc 51 81 9a bd 67 d9 7a 3d
       -0.06534379 -0.029511942 -0.075441964 0.061242487
000270 b3 36 4e bc 7b 2d 1c bd c6 3c f2 bc 44 d9 c3 3d
       -0.0125862835 -0.03812931 -0.029569995 0.095629245
000280 7a b4 de b9 d6 1d 91 bd 46 19 01 3e 06 5e 01 bd
       -0.00042477605 -0.07085769 0.12607297 -0.03158381
000290 c8 8b 79 39 05 b1 bc 3c 5d f0 12 3d c9 ed 57 3d
       0.00023798563 0.023033628 0.03587376 0.052717004
0002a0 50 26 94 bc 31 b3 26 3c 5c 1c e6 3c b6 20 d2 bc
       -0.018084675 0.0101745585 0.028089695 -0.025650363
0002b0 a2 db 7f 3d 5b 48 a6 3c 4d af c3 bb 22 d4 cd 3d
       0.062465318 0.020298174 -0.005971825 0.10050227
0002c0 cd 84 59 3d 7c b4 a3 3d 22 30 27 3c 67 35 87 3d
       0.053105164 0.07993409 0.010204347 0.066019826
0002d0 50 af a8 3d 45 a7 c6 bc b1 08 10 bc 19 c1 05 3e
       0.08236563 -0.024249682 -0.008791135 0.13061942
0002e0 1d 8c cb 3d 8d cd ea 3b 1d d4 90 bd a5 2f 62 3d
       0.09938834 0.007165617 -0.070717074 0.05522122
0002f0 ed 12 dd 3c ca 01 9c bd 85 1a 8d bc f1 30 a1 3c
       0.026986564 -0.07617529 -0.01722456 0.019676657
000300 4f 15 98 bd d3 9e 9c bd f3 1c a3 bc 25 7b 80 bb
       -0.07425939 -0.07647481 -0.019911265 -0.00392093
000310 5a 45 89 3d 2e 79 e8 3d 21 54 cb bd c6 77 eb bc
       0.06702681 0.11351238 -0.09928156 -0.028743636
000320 6e 23 05 bc 0a 7f 2b bd 3d b8 ed 3c 59 74 3b bd
       -0.008126123 -0.0418692 0.029018516 -0.045765255
000330 7a c0 cb 3c ac 2a b7 3a 3b b1 e0 bc 0b 48 e8 bc
       0.024872053 0.0013974509 -0.02742826 -0.028354665
000340 27 69 9d 3d 0b c2 0b bd 64 eb df 3d 5b 98 67 bc
       0.07686072 -0.0341206 0.10933569 -0.0141354455
000350 04 f3 f3 3c 79 3b fa bd 48 fd 3e bd 2d 49 a1 3d
       0.029778965 -0.12218375 -0.046628267 0.07875285
000360 07 56 0a bd 4e 96 82 bd 0b 99 ee 3c a7 90 11 3e
       -0.03377345 -0.063763246 0.029125711 0.14215337
000370 8a db 20 bd 0b df d2 3d 47 60 8a bb f6 a4 09 3e
       -0.03927187 0.10296448 -0.004222903 0.13441834
000380 76 8c 6c bc 8f 08 01 3d c6 6a ad bc ba 07 47 3c
       -0.014437785 0.031502303 -0.021169078 0.012147838
000390 ca c3 44 3d 12 fb 4e bd 93 18 62 3d b5 ef 7c 3d
       0.04803828 -0.050532408 0.055199217 0.06175204
0003a0 cd 37 43 bc 5d d5 91 3b 9b 91 e7 3c b6 92 52 3d
       -0.011915159 0.0044504837 0.028267672 0.051409446
0003b0 45 09 95 bd 49 4b 35 bd 12 ab c1 bc 7e 91 8c 3b
       -0.07277159 -0.04426125 -0.023641143 0.004289805
0003c0 ed 71 0f bd 12 1b 82 bd 4b ed 5c bd e9 b6 4c 3d
       -0.035020757 -0.063528195 -0.053937238 0.049979124
0003d0 41 7c 87 bd 01 a9 c0 3c 8b 4b ed b9 a8 40 47 bd
       -0.066154964 0.023518087 -0.00045260446 -0.048645645
0003e0 96 33 e2 3c 71 78 21 3d 2d f0 27 bd 60 cb d7 bc
       0.027612489 0.039421503 -0.041000534 -0.026342094
0003f0 b2 b3 92 3c 93 1e a2 3c ed 29 a7 3d 29 ca a2 bd
       0.017907951 0.01978997 0.081622936 -0.07948715

actor.4.bias f4 [128]
000000 38 31 d8 bc ce 66 01 bd 68 9e 7a bd 18 79 85 3d
       -0.026390657 -0.031592183 -0.061186224 0.065172374
000010 14 bf e0 bd 70 1f 24 bd 1d fe 88 be 70 d5 a6 bd
       -0.10973945 -0.040069044 -0.26756373 -0.08146179
000020 35 a3 14 3a 74 04 97 3d a9 c2 0b 3b 54 78 15 3d
       0.00056700717 0.07373896 0.0021325743 0.036491707
000030 93 a0 a2 bd 78 b6 02 bb e6 9a 2d bc dc af d9 bd
       -0.07940783 -0.0019945186 -0.010596013 -0.10629246
000040 59 9a 50 3d da 24 a3 bd 8f 7c 9e bc 18 3e 1f be
       0.050928447 -0.07966013 -0.019346504 -0.1555103
000050 24 fb 86 be 13 8b 69 ba e5 0b 9e 3c 84 c6 43 3c
       -0.2636348 -0.00089089683 0.019292781 0.011949185
000060 c0 87 69 be a3 66 8d 3a 70 5f 7b 3c 58 3d 13 be
       -0.22805691 0.0010788034 0.015342578 -0.1437887
000070 1f a1 bb 3b 44 36 af 3b 24 ff 8f bd f2 79 3b 3d
       0.0057259942 0.005347045 -0.07031086 0.045770593
000080 df f6 c5 3d f7 05 2c be 72 e3 b5 bc c7 81 46 3c
       0.096662275 -0.1679915 -0.022203181 0.012115902
000090 5f 39 8a bd 57 b4 a6 bd c4 39 92 3c e9 f7 0b bd
       -0.06749224 -0.08139866 0.01784981 -0.034171972
0000a0 5b 04 49 bd c8 e9 e0 bd 94 ca 39 3d 38 c8 a3 bc
       -0.04907642 -0.1098209 0.04535921 -0.019992933
0000b0 59 45 9b bc 94 6d a1 bc 35 de 8d bd 82 66 a8 3d
       -0.018953966 -0.019705571 -0.06927148 0.08222677
0000c0 11 29 d4 3b 44 23 5f 3d 2d 93 95 bd d5 ec 23 3d
       0.006474622 0.05447699 -0.07303462 0.040020783
0000d0 b2 03 8e 3d 91 e3 16 be 35 92 45 be 24 7c d4 3c
       0.069342986 -0.14735247 -0.19294055 0.025938101
0000e0 5a f8 d8 bd c3 57 00 be 16 12 16 be fc 59 50 bd
       -0.10594244 -0.12533478 -0.14655337 -0.050867066
0000f0 8f c1 0c bc 8d 9a 54 bc de fd 9d be 83 b1 8d 3d
       -0.00859107 -0.012976301 -0.30857748 0.06918623
000100 42 ec c6 ba e0 85 f3 bd 3f a9 6f 3d 3f 68 4f bd
       -0.0015176611 -0.11890769 0.058511015 -0.050636526
000110 a9 e5 5a bb 6e f9 49 bc ef 98 76 be 90 5b 1b bd
       -0.0033401048 -0.012327535 -0.24081777 -0.037929118
000120 6d a9 0d 3d 01 4d b4 bd e4 ff 46 3d 0c 93 93 bb
       0.034585405 -0.0880375 0.04858388 -0.0045036133
000130 17 4c 5d be 35 c2 e0 bd fe 54 e6 3d 2a f0 bd bb
       -0.21611057 -0.10974542 0.1124668 -0.005796452
000140 87 b0 6f bd a9 a1 53 bc 21 36 4a bc 65 bc 89 3d
       -0.05851796 -0.012916961 -0.012342007 0.067253865
000150 cd c3 87 3b 7d 4e 1d 3c b0 6c d2 bd 2d 6d 00 be
       0.0041432143 0.009601233 -0.10274637 -0.12541647
000160 8f e7 5f 3d 57 c5 08 bd 0e e3 c5 bc e2 53 38 bd
       0.05466419 -0.033391323 -0.02415612 -0.045001872
000170 17 6f e9 3d 0e 34 ad bd e4 13 88 3c 8d ba 64 bc
       0.11398142 -0.08457194 0.016611047 -0.013960493
000180 5c d5 10 be e1 d8 59 bc 04 3b 9f bc e2 2d d1 bb
       -0.1414389 -0.013296337 -0.01943732 -0.0063836435
000190 c9 32 bf 3c 01 e9 a6 bc 7e 74 95 3b f4 32 cd 3d
       0.023339646 -0.020374777 0.004561006 0.10019484
0001a0 ca 7e 94 3d 85 dd 24 bd 73 e3 70 be 08 74 90 bc
       0.072507456 -0.04025032 -0.23524265 -0.017633453
0001b0 cd 54 00 be 66 a1 f9 bb 1b 76 86 3c 2b 88 75 3c
       -0.12532349 -0.007618117 0.016413739 0.014986078
0001c0 67 42 b7 bc 82 d7 af bc 3b 39 22 bd 68 76 a5 bc
       -0.02237053 -0.021465067 -0.03960536 -0.020198062
0001d0 b0 75 31 3d 48 23 5b 3d 19 13 5d bc ba 86 8c 3c
       0.043325126 0.053500444 -0.013493323 0.017154086
0001e0 72 0c 83 bc b4 71 d7 3d 36 ef a3 3c 19 ba 46 bd
       -0.015997145 0.10519734 0.020011526 -0.04851732
0001f0 fb 3a d6 bd 54 19 42 3c 1b c5 ce bd e0 83 d0 bd
       -0.104604684 0.011846859 -0.10096189 -0.10181403

actor.6.weight f4 [29, 128]
000000 6b 58 97 bc dd ad 48 bc e0 c5 8e 3c 04 1e a2 3d
       -0.018474778 -0.0122484835 0.017428339 0.07915881
000010 44 74 6f bd d6 76 b3 bd 7f 4e 3a bb 21 3c 0d 3d
       -0.05846049 -0.087629005 -0.0028428135 0.03448117
000020 b2 18 9f 3d 15 8e fb bb 45 2d 67 bd c1 ff f6 bc
       0.07768382 -0.0076768496 -0.056439657 -0.03015125
000030 61 b6 31 3c 3e 87 82 bd 71 01 c3 bc 7c 9c 58 3d
       0.010846705 -0.06373452 -0.023804398 0.05288361
000040 2f eb ae 3c e0 2e a0 bd 75 ba cf bc 3a 8c 65 3d
       0.021352379 -0.07821441 -0.025357464 0.056041934
000050 2e 7c 47 3c 08 3a d8 3c 07 f6 18 3c cd ea 8a bd
       0.012175603 0.026394859 0.009336001 -0.06783066
000060 e6 f0 23 bd cd 94 25 bc b4 56 89 bd 99 bc c3 bc
       -0.04002466 -0.010106278 -0.067059904 -0.023893641
000070 38 14 b2 3b 92 d4 07 3d 93 b6 85 bd de ce cf bb
       0.005434539 0.033161707 -0.06528964 -0.006341799
000080 24 11 5d bd d2 9e a8 bc e7 14 b8 bd f4 8a a9 3b
       -0.053971425 -0.020583544 -0.08988362 0.005174035
000090 6a ca 88 bd 90 2a e7 3c 64 5c 57 3d 9c 05 94 bd
       -0.066792324 0.028218538 0.052578345 -0.072276324
0000a0 90 a9 8c 3d 4f e6 66 3d 26 8b 0b 3c 9f 09 d1 bd
       0.06868279 0.056371983 0.008517062 -0.10206913
0000b0 a0 34 5a 3d 67 ac 8d 3d bb 6f b8 bd 42 9c 52 3d
       0.053272843 0.06917649 -0.09005686 0.05141855
0000c0 c3 87 3b bd 84 13 f0 bb db 9a 82 3c b3 77 e5 3d
       -0.04578377 -0.007326545 0.015942981 0.112044714
0000d0 83 46 64 bd 0d 36 71 bd 75 78 10 be d9 64 69 bd
       -0.055731308 -0.058889437 -0.1410845 -0.05698094
0000e0 72 57 8b bc 13 36 13 3d 86 b4 4b bd 6c ca 65 bc
       -0.01700947 0.03594024 -0.049732707 -0.014025312
0000f0 cb 70 5e 3d 28 17 0a 3d a7 62 a6 bc b1 b1 10 3d
       0.054306787 0.03371349 -0.020310713 0.03532571
000100 68 10 d9 3c 5d 2a 51 bd 14 5d b7 3c e7 61 07 bd
       0.02649708 -0.05106579 0.02238325 -0.03305235
000110 5c f4 62 bc e1 de 24 bd 5e 71 c6 bd 01 2b bd bb
       -0.013852205 -0.040251616 -0.09689592 -0.0057729487
000120 e6 2f 83 3d 62 2c 82 bd cd 54 ad 3c 39 c0 77 bd
       0.0640562 -0.063561216 0.0211586 -0.060486052
000130 20 04 29 3c b1 3e 43 bd 65 e2 a4 bc f9 11 b4 3c
       0.010315925 -0.04766721 -0.020127485 0.021981226
000140 d2 04 39 bd 64 3c 42 3d 8d 7d 90 bc 06 f4 41 3c
       -0.045170613 0.047420874 -0.017637992 0.011837965
000150 0d 36 bb 3c 05 e4 a5 3d 26 7f 96 bc 5e dc dd bd
       0.022852922 0.08100132 -0.018371176 -0.10833047
000160 8a 38 87 3d d6 68 6e 3d 72 67 cd 3c 95 f4 5b bc
       0.06602581 0.058205448 0.02507374 -0.013425012
000170 1b 5b b6 bb 41 7f 30 bd db 4d 63 bc 26 e7 26 3d
       -0.00556506 -0.04309011 -0.013873543 0.040747784
000180 f0 71 df 3b 34 6a c2 bb 48 a3 79 3c a7 7d 22 bd
       0.0068190023 -0.0059330706 0.015236683 -0.039670613
000190 ef 5c 3c 3d fc 2f 08 bc d6 65 75 3d 5e 40 53 bd
       0.045987066 -0.008312222 0.05991157 -0.051575057
0001a0 4c 1d 6c 3c e6 9e 8f 3c 17 06 fb ba 88 9c 22 bd
       0.014411282 0.017531823 -0.0019151595 -0.03970006
0001b0 23 47 8e 3d 68 3b 2a 3d 3c 00 80 3d 21 2f 6a bd
       0.06947162 0.04156056 0.06250045 -0.057173852
0001c0 a6 38 29 3c 42 bd ca bc 54 27 44 bd 26 24 d0 ba
       0.010328447 -0.024748448 -0.04788907 -0.0015879914
0001d0 4b 4e 28 3d ec f7 4a 3d a9 28 60 bb f2 93 02 bd
       0.04109029 0.049552843 -0.0034203923 -0.031879373
0001e0 fc 4c 2e 3d 64 53 5b 3d 4a 58 44 bb 2b f3 f3 3c
       0.042553887 0.053546324 -0.002995985 0.029779037
0001f0 fc ee 83 3d 99 71 19 bd 51 7c 7c bb 14 5a f3 ba
       0.06442067 -0.03746185 -0.0038526247 -0.0018566274
000200 0a 0b 03 bd 86 21 18 3c 93 8d 58 bd a5 fa 13 bd
       -0.03199295 0.009285336 -0.05286939 -0.036127705
000210 e7 70 04 3d dc 7c 95 3c e3 95 e5 3c e3 d4 f3 bc
       0.032334235 0.018248014 0.028025573 -0.029764598
000220 5b 83 e9 bd e4 bd 8c bd 92 ad d3 bb 04 19 8f 3c
       -0.11402007 -0.06872156 -0.0064599 0.017467983
000230 6d 4b 87 bd 05 8b 8d bc ef 47 2a bd 87 61 b3 bc
       -0.06606183 -0.017278204 -0.041572507 -0.02189709
000240 5f 16 52 3c d5 9d 48 3d db a7 cb bd 81 f4 ae bd
       0.0128227165 0.048978645 -0.09944125 -0.08542729
000250 25 42 96 bd 51 8d 65 bd 17 c7 33 3c 24 4b 1a bd
       -0.07336835 -0.056042973 0.01097276 -0.037669316
000260 5a 43 97 3d 0d e9 4e bc c6 1a 29 3d 0e 00 f2 3c
       0.07385893 -0.012628806 0.0412853 0.029541042
000270 b5 64 5c 3d df c8 d7 bc 7b b9 50 bd a1 de 70 3c
       0.05380698 -0.0263409 -0.050958138 0.014701516
000280 16 fa 6e 3c 92 c2 09 3d fb 47 2f bd 83 26 81 3d
       0.014585992 0.033632822 -0.042793255 0.06306174
000290 23 35 df 3c 57 4b b5 3c b3 f3 8b 3c 0d 55 92 bd
       0.027247017 0.022130651 0.017083978 -0.071451284
0002a0 51 52 76 3d 05 65 7f 3d ef d8 bf 38 5b 78 02 3d
       0.060137097 0.0623522 9.147997e-05 0.03185306
0002b0 e8 46 c9 bc 01 f4 8d 3d f9 87 c6 3b d7 c9 44 bc
       -0.024569944 0.06931306 0.0060586897 -0.012011013
0002c0 65 c2 da 3c bd b9 15 3d 47 3e 14 bd f7 8c 7f 3d
       0.026704023 0.036554087 -0.036192205 0.062390294
0002d0 f4 7e 1a bd 7c e3 20 3d 04 f3 32 bd 63 a8 9b bd
       -0.03771873 0.039279446 -0.04368879 -0.076004766
0002e0 8c 35 af bc 69 ed 64 bd 82 71 9e bc c8 86 d1 3c
       -0.021387838 -0.055890474 -0.019341234 0.025576964
0002f0 6f 13 8c bb bb de 66 3d 5a 13 a8 bd 43 98 e3 bc
       -0.0042747776 0.056364756 -0.08206816 -0.027782565
000300 7d 07 25 3d e5 a3 e9 3d 7d 3b 84 3d 54 d9 b2 bc
       0.040290345 0.114082135 0.06456659 -0.021832146
000310 df 2b cc bc 71 de 3b 3d d6 06 03 bd dd 1e 4f 3c
       -0.024923263 0.045866434 -0.03198894 0.012641636
000320 e6 81 4c 3d ab b9 d7 3c 22 36 2d bd ca 0a 2e 3d
       0.04992857 0.02633365 -0.042287953 0.042490758
000330 bb 91 02 3d f3 f9 83 bd 2e 4e 0f 3d 35 8e 4a bd
       0.03187726 -0.064441584 0.034986667 -0.049452025
000340 ae 60 06 3d dd d7 2a 3c 4a ac 9e bd 34 6d 24 bc
       0.032807045 0.010427442 -0.07747705 -0.010035802
000350 cc b8 a3 bd 39 14 67 3d b3 e0 56 3c 38 1d de bc
       -0.079942316 0.05641577 0.013115096 -0.027113542
000360 c7 b1 dc bc bc c2 b9 3c 5f 30 41 bc 50 21 16 3d
       -0.02694024 0.022675864 -0.011791318 0.036652863
000370 88 ed c7 3d d8 69 60 bd 2d 87 89 bc ee 14 5d 3d
       0.09762102 -0.05478844 -0.01678809 0.05397504
000380 5c 48 95 bd b3 80 95 3c 10 fb 81 3d 81 f8 b5 bc
       -0.07289192 0.018249845 0.063467145 -0.022213222
000390 c7 01 a8 bb bf 40 66 bd 7c 7e be 3c 63 7c d1 3c
       -0.005127165 -0.05621409 0.023253672 0.025572008
0003a0 4a cf 8a 3c d4 43 8d bc cb d6 87 bd b7 fc f2 3c
       0.016944546 -0.017244257 -0.066327654 0.02966152
0003b0 ab 92 11 3e 59 44 56 bd 03 1d 6a bd b5 fa 20 3d
       0.14216106 -0.052311275 -0.057156574 0.039301593
0003c0 5e 57 13 bd 9b d5 8c 3c 2a fe 65 3c 5a d0 88 bc
       -0.03597199 0.017191699 0.014037648 -0.016700912
0003d0 30 ee 0d 3d 30 9d a1 bc 18 4c e8 3c dc 04 b5 3b
       0.03465098 -0.019728273 0.028356597 0.005524261
0003e0 c6 b0 46 bd 4e f5 04 3d fc 3f c1 3c 77 b2 19 3d
       -0.048508428 0.032460503 0.02359008 0.037523713
0003f0 f2 e9 0f be 48 23 71 bc 8b ce 82 3b 23 66 28 bd
       -0.14054087 -0.014717884 0.003991907 -0.04111303

actor.6.bias f4 [29]
000000 e4 29 bc 3d 7f ae 4b bd 86 f6 53 bc 21 c9 56 bd
       0.091876775 -0.04972696 -0.012937194 -0.052437905
000010 c2 f8 95 3d 58 f3 a7 3c 90 98 f9 bd c6 7f 24 3d
       0.073228374 0.020501778 -0.12187302 0.040160917
000020 83 97 19 bd 4c e9 4e 3e c3 56 6f 3c e1 38 66 3d
       -0.03749801 0.20206183 0.014608088 0.056206588
000030 de a1 2d bd 1b 4b ab 3d a6 d1 9d bc 8c 14 4e bc
       -0.042390697 0.083639346 -0.019265007 -0.012578141
000040 3a 66 89 3c 58 d6 26 bd 9b 9b ac 3c 05 4a e4 bb
       0.016772378 -0.040731758 0.021070292 -0.0069668316
000050 2b c3 73 3d 79 d0 3d 3d 60 ce 8e bd de 9f 79 bd
       0.0595123 0.046341393 -0.06972957 -0.060943477
000060 d6 ee bb bc 72 55 96 3d 53 c3 af b9 02 60 a3 bc
       -0.022941034 0.07340516 -0.0003352413 -0.019943241
000070 aa 4d 5e bd
       -0.054273285
